jenny.pth (torch, 493733 bytes, 10 tensors)

conv1.weight f4 [32, 3, 3, 3]
0	0xbe6b550b	-0.2298166
1	0x3d61ee49	0.055158887
2	0xbea95b1c	-0.33077323
3	0xbd9774ea	-0.073953465
4	0x3e3f837a	0.18702498
5	0x3e09c2f7	0.1345328
6	0xbd78117b	-0.060563546
7	0xbd9e56f8	-0.07731432
8	0x3e089614	0.133385
9	0xbd6b7976	-0.05748888
10	0x3ebb5de8	0.36595082
11	0xbd8ca82a	-0.06868012
12	0xbe3ca307	-0.18421565
13	0x3c6523bc	0.0139855705
14	0x3e5cd9bd	0.21567436
15	0x3e57f160	0.21088171
16	0xbe009471	-0.12556626
17	0xbd382eed	-0.044966627
18	0x3d819318	0.06326884
19	0x3ecd53fa	0.40103132
20	0x3ca785ce	0.020449545
21	0xbe61c6ac	-0.22048444
22	0xbd2a24f0	-0.041539133
23	0x3cb2e043	0.021835452
24	0xbe0541c2	-0.13013366
25	0xbe486006	-0.1956788
26	0xbd02ff6e	-0.031981878
27	0xbe2cceda	-0.16875783
28	0x3e02db47	0.1277896
29	0xbd401679	-0.04689643
30	0x3e559f4d	0.2086155
31	0xbdff0dfc	-0.12453839
32	0x3e0ba149	0.13635744
33	0x3dc9fe6a	0.09862979
34	0x3d3bcbf1	0.04584879
35	0x3d5fdbee	0.0546531
36	0xbcdf8fab	-0.027290186
37	0x3dece420	0.11566949
38	0xbda169ab	-0.07881483
39	0x3e890ffa	0.26770002
40	0xbe3a3bb7	-0.18186842
41	0x3d6aec36	0.057354175
42	0xbd870d09	-0.06594283
43	0x3df7392d	0.12071452
44	0xbe08fa41	-0.13376714
45	0xbd00efe0	-0.031478763
46	0x3dc27def	0.09496676
47	0xbe626744	-0.22109705
48	0xbe05ff94	-0.13085777
49	0x3ce9c6ec	0.028537236
50	0xbe037a94	-0.12839729
51	0xbe049786	-0.12948427
52	0xbe203243	-0.15644173
53	0x3e0c13d3	0.13679437
54	0xbde6be9d	-0.11266825
55	0x3cbd6e02	0.023123745
56	0xbe4b584e	-0.19857904
57	0x3dbe50b7	0.09292739
58	0xbe9062c3	-0.2820035
59	0xbe594a83	-0.2121983
60	0xbe6dfb40	-0.23240376
61	0x3d612580	0.054967403
62	0x3db4ff9c	0.08837816
63	0x3bf8dfa3	0.007595019
64	0x3ebc6e27	0.3680279
65	0x3e9d7bd4	0.30758536
66	0x3e93b03f	0.28845403
67	0x3e441366	0.19148025
68	0x3e82085e	0.2539701
69	0xbc0d3c54	-0.00862034
70	0x3e0917ac	0.13387936
71	0x3e22763b	0.15865414
72	0xbdae359f	-0.08506321
73	0xbe07b6f4	-0.13253385
74	0xbe1111b1	-0.14166905
75	0xbcf55226	-0.029946398
76	0xbe42fab7	-0.19040953
77	0xbe6a7bc5	-0.22898777
78	0x3c34cc96	0.011035105
79	0xbd431f0d	-0.047637034
80	0xbe1138b2	-0.14181784
81	0xbed94702	-0.42436987
82	0xbec4b6f3	-0.3842083
83	0x3ca3c175	0.019989708
84	0x3dc3c375	0.09558765
85	0x3e805824	0.25067246
86	0x3d4874ac	0.048939392
87	0x3e1f3260	0.1554656
88	0x3e20fea1	0.15722133
89	0x3db49e60	0.0881927
90	0xbc873a29	-0.016507225
91	0xbe3e6d5b	-0.18596403
92	0x3c92e258	0.017930195
93	0x3e072285	0.13196762
94	0x3e0bbfa3	0.13647322
95	0x3e886c31	0.26645043
96	0x3d4f2189	0.05056909
97	0xbe195115	-0.14972337
98	0x3c37e553	0.011224109
99	0xbea44a62	-0.32088
100	0xbe32733d	-0.17426772
101	0xbe28c819	-0.16482581
102	0x3dfbf5e2	0.12302758
103	0x3e98f5d8	0.29875064
104	0x3e12a69d	0.1432137
105	0x3d812e08	0.06307608
106	0xbe289480	-0.16462898
107	0xbd0a73c8	-0.033801824
108	0xbd1d9ab7	-0.038477626
109	0x3d71a057	0.058990803
110	0xbdd8aed5	-0.105802216
111	0x3e705b22	0.23472264
112	0x3d6ee250	0.058321297
113	0x3e918104	0.28418744
114	0x3d31a635	0.043371398
115	0x3e3466f1	0.17617394
116	0x3e82d7e4	0.25555336
117	0xbe26869e	-0.1626229
118	0xbe6c6598	-0.2308563
119	0x3cba0081	0.022705318
120	0xbe8b707c	-0.27234256
121	0xbe3a652f	-0.18202661
122	0xbe9147f9	-0.28375223
123	0xbb14aae0	-0.0022684857
124	0xbe00cbda	-0.12577763
125	0xbeb2940c	-0.34878576
126	0x3e0da7c9	0.13833536
127	0x3e54204b	0.20715444
128	0x3dacc8f8	0.08436769
129	0x3d94a2c9	0.07257611
130	0x3e04c1b3	0.12964515
131	0xbb2d61b7	-0.0026455948
132	0xbd6d4c70	-0.057934225
133	0xbd248147	-0.04016235
134	0x3da3820a	0.07983787
135	0x3cb18957	0.021671934
136	0xbe5b9ffa	-0.21447745
137	0x3dedebc8	0.11617237
138	0xbda11ecc	-0.07867202
139	0x3e2e848d	0.17042752
140	0xbde5df3c	-0.11224219
141	0x3d58d42c	0.052936718
142	0xbe8c89a8	-0.27448773
143	0xbe8bcdca	-0.27305442
144	0x3c6a705f	0.014309018
145	0x3c71fb8d	0.014769447
146	0xbe09cb58	-0.13456476
147	0x3e9d5398	0.3072784
148	0x3e8cf2d3	0.2752901
149	0x3e8e6e3e	0.27818483
150	0xbdda7b58	-0.10668057
151	0x3dec8d7c	0.115504235
152	0x3d72bd16	0.059262358
153	0xbd8df136	-0.06930773
154	0xbd96b13c	-0.073580235
155	0x3c477a04	0.012175087
156	0x3e14a5f9	0.14516439
157	0xbd90af03	-0.07064631
158	0x3e15e991	0.1463988
159	0xbe50c2df	-0.20386837
160	0xbdbf21dd	-0.09332631
161	0x3c25d836	0.0101223495
162	0x3d03f95a	0.032220222
163	0x3d2717d2	0.0407942
164	0x3d108e22	0.0352918
165	0xbde0847c	-0.109627694
166	0xbc7d43c4	-0.015458051
167	0x3cad3c29	0.02114685
168	0xbe322d2b	-0.17400043
169	0x3ca4580e	0.020061519
170	0xbd001765	-0.03127231
171	0xbe1a8b15	-0.15092118
172	0x3e0a0387	0.13477908
173	0x3caba590	0.02095297
174	0x3dd96ea7	0.106168084
175	0x3d23abd6	0.039958797
176	0x3d954a2e	0.07289539
177	0xbdb591fa	-0.088657334
178	0x3e323d95	0.17406304
179	0x3cb0b1b8	0.021569118
180	0xbdd36e68	-0.10323793
181	0xbdaeb1da	-0.08530016
182	0x3e61deee	0.22057697
183	0xbe60b302	-0.21943286
184	0x3e2f7828	0.1713568
185	0x3e830ead	0.25597134
186	0xbd4310d6	-0.047623478
187	0x3e4ced54	0.20012408
188	0x3e4e4171	0.20142151
189	0x3e867c8b	0.26266894
190	0xbd5eb931	-0.05437583
191	0xbdeeda4b	-0.1166273
192	0xbd036417	-0.032077875
193	0xbe1cf9da	-0.15329686
194	0x3d083071	0.033249322
195	0xbd783c1d	-0.060604203
196	0xbddd2856	-0.10798709
197	0xbd3e0acb	-0.04639701
198	0x3e518f6e	0.2046487
199	0xbea1c47e	-0.31595224
200	0x3e07c831	0.1325996
201	0x3e8e60f2	0.27808338
202	0xbe9851f6	-0.2975003
203	0xbe2b41e6	-0.16724357
204	0x3e4cd6ba	0.20003787
205	0xbe5a37eb	-0.21310394
206	0x3e258318	0.1616329
207	0x3e85007b	0.2597693
208	0xbe7fd8b5	-0.24985011
209	0x3deaaa4a	0.11458261
210	0xbc1ad6ec	-0.009450655
211	0xbe5abe8e	-0.21361753
212	0x3e37f854	0.17965823
213	0x3e22e1d2	0.15906456
214	0xbd68e2a6	-0.056856774
215	0x3dd0776b	0.10179027
216	0x3dfee9e1	0.124469526
217	0x3eaa8c91	0.3331037
218	0xbda45c36	-0.080254
219	0x3e5be58d	0.21474285
220	0x3e5e6d14	0.21721298
221	0xbed50927	-0.41608545
222	0x3db6a629	0.08918411
223	0xbe27645d	-0.1634688
224	0xbe9043ee	-0.28176826
225	0xbe01ae39	-0.12664117
226	0x3e7813c1	0.24226286
227	0xbc722d6b	-0.014781336
228	0x3ea95cf3	0.33078727
229	0xbd5f6952	-0.0545438
230	0xbec6e97b	-0.38850006
231	0x3d4e3765	0.050345797
232	0xbe80fe96	-0.25194234
233	0x3ba7acb8	0.005117025
234	0xbc345c7c	-0.011008378
235	0x3e303da0	0.17211008
236	0x3cba8b07	0.022771372
237	0xbbdad5a2	-0.006678299
238	0x3c6fb709	0.014631041
239	0xbcaf1afe	-0.021375176
240	0xbd0ef75f	-0.03490388
241	0xbe5d9801	-0.21640016
242	0x3d26b0bf	0.040695902
243	0x3e3c3527	0.18379651
244	0xbdf73fb3	-0.120726965
245	0x3d81071e	0.063001856
246	0xbeaa3bad	-0.33248654
247	0x3cbf8999	0.023381041
248	0x3ddf377b	0.10899254
249	0x3e01b038	0.12664878
250	0x3e9f85db	0.3115681
251	0xbe8731ac	-0.26405084
252	0x3e983abb	0.29732308
253	0xbeaac5c8	-0.3335402
254	0xbbecdbe2	-0.0072283605
255	0xbe8b92e1	-0.27260497

conv1.bias f4 [32]
0	0xbe0d406d	-0.13794108
1	0xbe0f47a3	-0.13992171
2	0xbdc61954	-0.096728
3	0xbe2a40c7	-0.16626273
4	0xbe0745ff	-0.13210295
5	0xbc2d1c8c	-0.010565888
6	0xbe46dd28	-0.19420302
7	0xbe44f8b8	-0.19235504
8	0xbe56bd30	-0.20970607
9	0xbd26e709	-0.040747676
10	0xbdd8c8fb	-0.10585209
11	0xbd409d2a	-0.047024883
12	0xbeb5ccc5	-0.3550779
13	0xbe0be77e	-0.13662526
14	0xbe59e254	-0.21277744
15	0x3d842870	0.06453025
16	0xbe250784	-0.16116148
17	0xbdaecdd3	-0.085353516
18	0xbd5f14e0	-0.054463267
19	0xbdea6087	-0.114441924
20	0xbe56556d	-0.20931025
21	0xbd94822b	-0.0725139
22	0xbed154e5	-0.40885082
23	0xbc57f582	-0.013181092
24	0xbcd88d8c	-0.026434682
25	0xbc3985df	-0.011323421
26	0xbcfbb0b1	-0.030723901
27	0xbe6c766f	-0.23092054
28	0xbda06e02	-0.07833482
29	0xbd08cf82	-0.03340102
30	0xbd548493	-0.051884245
31	0xbcf7eea4	-0.03026516

conv2.weight f4 [64, 32, 3, 3]
0	0x3b2f3923	0.0026736937
1	0x3c9b3f07	0.018950952
2	0x3d09b242	0.033617266
3	0x3c420ccd	0.011843872
4	0xbd2f3339	-0.04277346
5	0x3c1df112	0.009639995
6	0xbd0a8250	-0.033815682
7	0x3c9fc53f	0.019503234
8	0xbb5c9b6d	-0.0033661977
9	0xbd888365	-0.066656865
10	0xbd0562b3	-0.03256483
11	0xbc827dca	-0.015929122
12	0x3c9662f1	0.018357726
13	0xbd58b83a	-0.052910067
14	0xbca40676	-0.020022612
15	0xbd05651f	-0.03256714
16	0xbd1d705a	-0.038437225
17	0xbd034536	-0.032048427
18	0xbc1ace86	-0.009448653
19	0xbce9b2ee	-0.028527703
20	0xbd821f10	-0.06353581
21	0x3ca56638	0.020190343
22	0x3be9ced3	0.007135251
23	0x3cb5290a	0.022114296
24	0x3ce06481	0.027391674
25	0x3cde1721	0.027110638
26	0xbd296076	-0.041351758
27	0x3b3c620d	0.0028744966
28	0xbd96fd8b	-0.07372578
29	0x3bfd55cb	0.0077311746
30	0x3bb82bdd	0.0056204633
31	0xbc210754	-0.009828407
32	0xbc2706c5	-0.010194485
33	0xbbf57e11	-0.007491835
34	0x3d32a958	0.04361853
35	0xbd56d012	-0.052444525
36	0x3cf00f0f	0.029304055
37	0xbcd87ed1	-0.026427658
38	0x3d43c7d1	0.04779798
39	0xbc19c041	-0.009384216
40	0x3ba773c4	0.005110236
41	0x3c7f9437	0.015599302
42	0x3c0f5a34	0.008749533
43	0xbc39ccbd	-0.011340317
44	0xbd41074b	-0.047126096
45	0x3b966d7c	0.0045906883
46	0x3c8b7411	0.017023118
47	0xbca1511a	-0.019691993
48	0x3c61832c	0.013764184
49	0xbd5a1c7b	-0.053249817
50	0x3ba2296f	0.004948787
51	0xbd4f1aa5	-0.05056252
52	0x3c03a55e	0.008035032
53	0xbd7c485d	-0.06159245
54	0xbd62e606	-0.05539515
55	0xbd31a34d	-0.043368626
56	0xbcbc8870	-0.023014277
57	0xbbde2ed8	-0.0067804866
58	0xbd081845	-0.03322627
59	0x3d05a476	0.032627545
60	0xbd1ee4ff	-0.038792606
61	0x3b9dfb73	0.004821235
62	0x3ad5459d	0.0016271357
63	0x3d2ba270	0.04190296
64	0x3d708621	0.058721665
65	0xbd094f73	-0.033523034
66	0xbced3bff	-0.028959272
67	0xbcd26ad8	-0.025685713
68	0x3d46cd46	0.048535608
69	0x3d12fb3d	0.03588413
70	0xbc961db0	-0.018324703
71	0xbd2610fb	-0.040543538
72	0x3cc740bb	0.024322858
73	0xba3a1ac5	-0.0007099326
74	0xbd8278f5	-0.06370727
75	0x3c496d41	0.012294115
76	0x3cad60c8	0.021164313
77	0xbc3e092c	-0.011598866
78	0x3c78df2d	0.015189928
79	0x3be0a71b	0.006855858
80	0xbd11259d	-0.03543626
81	0xbd096072	-0.033539243
82	0xbd352130	-0.044221103
83	0xbd22a853	-0.039711308
84	0xbcb4d3f5	-0.022073725
85	0x3d482f2f	0.048873123
86	0xbb1ea8e9	-0.0024209565
87	0xbbf68fa9	-0.00752445
88	0x3d0be71c	0.03415595
89	0xbbebd2de	-0.007196768
90	0xbc17381d	-0.009229687
91	0xbc2fe8da	-0.0107366685
92	0xbd5ef5e6	-0.054433726
93	0xbca3479b	-0.019931605
94	0xba76808e	-0.00094033114
95	0xbbfad629	-0.0076549244
96	0x3c97e108	0.01853992
97	0x3c59823f	0.013275682
98	0x3c9d4c78	0.019201502
99	0x3cfd9459	0.030954527
100	0xbc7738df	-0.015089243
101	0xbd08bbb4	-0.033382133
102	0x3d09a62b	0.033605736
103	0x3bcce850	0.0062532797
104	0xbcb24a6f	-0.021764008
105	0xbd7ddf66	-0.061980627
106	0xbd8ac96e	-0.06776701
107	0xbd7300b5	-0.059326846
108	0xbc9b8851	-0.0189859
109	0xbd27397a	-0.0408263
110	0xbbcd5ae4	-0.0062669385
111	0xbd3d3304	-0.04619123
112	0x3cbb39ec	0.022854768
113	0xbd35c51b	-0.044377428
114	0xbd5750f0	-0.052567422
115	0xbd825932	-0.06364669
116	0xbccc1d12	-0.024916206
117	0xbcb951b3	-0.022621965
118	0xbd42d42f	-0.047565635
119	0xbd7b9048	-0.061416894
120	0xbc8d3b34	-0.017240144
121	0xbd2c860b	-0.04212002
122	0x3d4b72bb	0.049669962
123	0xbd1602a9	-0.03662363
124	0xbd028488	-0.031864673
125	0x3d559d87	0.052152183
126	0x3ca12cfd	0.019674772
127	0x3c79df4e	0.015250994
128	0xbd265ee1	-0.040617827
129	0x3be50b50	0.006989874
130	0xbd0a29f2	-0.03373141
131	0x3d2ab4aa	0.0416762
132	0xbd6f9641	-0.058492903
133	0xbd263a73	-0.040583085
134	0x3c5ad222	0.013355764
135	0x3d28d450	0.041218102
136	0xbd98c187	-0.074587874
137	0x3a45808a	0.00075341074
138	0xbb979de7	-0.0046269777
139	0xbd84375d	-0.06455872
140	0x3cca4772	0.02469227
141	0x3d4dab97	0.05021247
142	0xbcc22346	-0.02369846
143	0xbc006642	-0.00783688
144	0xbbb6f656	-0.0055835648
145	0xbd67bea0	-0.05657828
146	0xbd8d46b8	-0.06898254
147	0x3cac0f11	0.021003278
148	0xbd7d9fcc	-0.061919972
149	0xbca308fe	-0.019901749
150	0xbcc5f20d	-0.02416327
151	0xbcad803b	-0.02117931
152	0xbd8caac4	-0.068685085
153	0xbcfad324	-0.030618258
154	0x3d7e8a56	0.062143646
155	0x3d0b3551	0.033986393
156	0xbcbd0d82	-0.02307773
157	0xbd54c72d	-0.05194776
158	0x3ba4513f	0.005014568
159	0xbd046e3f	-0.0323317
160	0x3cf88ee6	0.030341577
161	0xbd609fe4	-0.054839984
162	0xbd4f61b0	-0.05063027
163	0x3cbf0e77	0.023322327
164	0x3cbfcb37	0.02341233
165	0xbd986f69	-0.07443125
166	0x3ceb5258	0.028725788
167	0x3cff9801	0.03120041
168	0x3bee826d	0.0072787316
169	0x3b77c87b	0.0037808705
170	0x3d01b5b8	0.03166744
171	0xbc2a3f94	-0.010391135
172	0xbd25239e	-0.04031717
173	0xbd534467	-0.051578905
174	0x3d5f4230	0.05450648
175	0xbd32caa3	-0.04365028
176	0xbccf4436	-0.02530108
177	0xbd0a1494	-0.03371103
178	0x3bcadb68	0.006190706
179	0xbb819c8d	-0.00395543
180	0xbd4660ba	-0.04843209
181	0xbc953746	-0.018214833
182	0x3d099ff4	0.03359981
183	0xbcf7d154	-0.030251183
184	0xbca4438b	-0.020051738
185	0x3c6fe0e9	0.014641025
186	0x3be64402	0.00702715
187	0x3d3821a0	0.044953942
188	0xbb1bf22c	-0.0023795469
189	0x3d01941d	0.031635392
190	0x3cebbcb0	0.028776497
191	0xbcc54123	-0.024078911
192	0xbd8549be	-0.06508206
193	0x3d25556f	0.04036468
194	0x3cdeef26	0.027213644
195	0xbd4869d8	-0.048929065
196	0xbc97883e	-0.018497583
197	0x3d0e18a5	0.03469147
198	0xbd64cecf	-0.05586129
199	0x3cf2c552	0.029635105
200	0x3cce18ca	0.025158305
201	0x3a0af41c	0.00053006574
202	0xbd3d091d	-0.04615127
203	0x3d3eda0c	0.046594664
204	0xbcdad30b	-0.026711961
205	0xbbab8df3	-0.0052354275
206	0x3d05c819	0.03266153
207	0xbd33e7ea	-0.043922342
208	0xbd6af375	-0.057361085
209	0x3d2c001e	0.0419923
210	0xbd833684	-0.064068824
211	0xbb356fed	-0.0027685121
212	0x3d03227d	0.032015312
213	0x3c97f770	0.018550605
214	0x3d397cec	0.04528515
215	0x3d44323f	0.04789948
216	0xbd47e736	-0.048804484
217	0xbbad00ba	-0.0052796276
218	0xbc9b3b99	-0.018949317
219	0xbc31fd6f	-0.010863646
220	0x3d2caf55	0.042159397
221	0xbcfc3a63	-0.03078956
222	0x3d2b98a6	0.041893624
223	0xbcefb5ab	-0.02926143
224	0x3ca3373a	0.019923795
225	0x3d0614b4	0.032734588
226	0xbd835e31	-0.0641445
227	0xbd331455	-0.043720562
228	0x3cde9c14	0.027174033
229	0xbd7712d8	-0.060320705
230	0xbd0f40f0	-0.03497404
231	0xbc1a4e74	-0.009418119
232	0x3c206146	0.009788817
233	0xbbd9d9c8	-0.006648276
234	0xbc1dfbb6	-0.009642532
235	0x3d45508d	0.048172522
236	0x3c7bf608	0.015378483
237	0x3cc5f904	0.024166591
238	0x3c6ba0ff	0.014381646
239	0xbd67b34a	-0.056567468
240	0xbd054c63	-0.03254355
241	0x3bf644ef	0.0075155417
242	0x3c60bcf5	0.013716926
243	0x3d3cb26f	0.046068605
244	0x3bb5a1f4	0.005542988
245	0x3cde9806	0.0271721
246	0xbd4edcb5	-0.05050345
247	0xbcaaca20	-0.020848334
248	0xbce23152	-0.027611408
249	0x3cc5dfac	0.024154507
250	0xbca3f7cc	-0.02001562
251	0xbd146f07	-0.036238696
252	0x3ce4f10d	0.027946973
253	0xbd04f3e2	-0.032459147
254	0xbda5df6f	-0.08099257
255	0x3d298e8d	0.041395713

conv2.bias f4 [64]
0	0xbd814320	-0.06311631
1	0x3d7a1332	0.061053462
2	0xbdd43371	-0.10361374
3	0x3e974427	0.29544184
4	0x3dba32f8	0.09091753
5	0x3df9835e	0.121832594
6	0x3db9db36	0.09075014
7	0x3d0f26f6	0.034949265
8	0xbe462e8f	-0.19353698
9	0x3d6b7e64	0.057493582
10	0x3d3a529a	0.04548893
11	0x3e2666f7	0.16250215
12	0x3de95dc5	0.11394838
13	0x3e890ae6	0.26766127
14	0x3e01926e	0.12653515
15	0xbccb20ff	-0.024796007
16	0xbb1a8c43	-0.0023582138
17	0xbca81fc0	-0.020522952
18	0xbe1cdf76	-0.15319619
19	0xbd70e83f	-0.058815237
20	0x3d97e277	0.074162416
21	0xbdb6d531	-0.08927382
22	0x3db87333	0.090063475
23	0xbd2db5dc	-0.042409763
24	0xbd151291	-0.03639466
25	0x3ee3ec9b	0.44516453
26	0xbcc0e030	-0.0235444
27	0xbd425118	-0.04744062
28	0xbb2bb64d	-0.002620119
29	0x3d190f02	0.03736783
30	0xbc004511	-0.007828967
31	0x3d470e56	0.048597656
32	0xbd5f5961	-0.054528598
33	0x3e85b027	0.26110956
34	0xbd7539e2	-0.059869654
35	0x3e90470e	0.2817921
36	0x3b226b2e	0.0024783122
37	0x3d34ea53	0.04416878
38	0x3d7e81f5	0.062135655
39	0xbda09b89	-0.07842166
40	0x3cf981f7	0.03045748
41	0xbdb3e34e	-0.08783589
42	0xbe2c28cd	-0.1681244
43	0xbd97d75a	-0.07414122
44	0xbe3c796d	-0.18405695
45	0xbdbcd5f3	-0.09220495
46	0x3d3d6b7e	0.04624509
47	0xbd6fdb15	-0.058558542
48	0x3dc9ba2c	0.098499626
49	0x3d2f9f0b	0.042876285
50	0x3d4ce0f8	0.050019234
51	0xbd65bcd6	-0.05608829
52	0xbd69d839	-0.05709097
53	0x3dd5b13e	0.10434197
54	0xbe47d660	-0.19515371
55	0x3cda5af3	0.026654696
56	0x3d846af8	0.06465715
57	0xbe04de55	-0.12975438
58	0xbdbeda9e	-0.09319042
59	0xbc86fded	-0.016478503
60	0x3c0019ea	0.007818678
61	0xbd846d07	-0.06466108
62	0x3c7e6731	0.015527532
63	0xbd86973f	-0.06571817

conv3.weight f4 [64, 64, 3, 3]
0	0xbcf6161d	-0.030039841
1	0x3d33e3e6	0.043918513
2	0x3c21247b	0.009835358
3	0x3cb30000	0.021850586
4	0x3d45f703	0.04833127
5	0x3d1df4d2	0.038563557
6	0x3cf861e9	0.030320125
7	0x3cbf2750	0.023334175
8	0x3a399ced	0.00070805737
9	0x3db07c38	0.08617443
10	0x3d990b50	0.07472861
11	0x3dca9ecf	0.098935716
12	0xbd800409	-0.0625077
13	0xbd37472a	-0.0447456
14	0x3e25da16	0.16196474
15	0xbd05b53d	-0.032643545
16	0x3ca70811	0.020389589
17	0xbd962f61	-0.073332556
18	0x3cddd5ce	0.02707949
19	0x3bb77b59	0.005599421
20	0x3d49901e	0.049209706
21	0xbd35f2ef	-0.044421133
22	0x3bc78aed	0.0060895593
23	0x3cab0147	0.020874633
24	0xbc9e86b8	-0.019351348
25	0xbd0e0b1f	-0.034678575
26	0xbd3d1882	-0.04616595
27	0x3dc3ed58	0.09566754
28	0xbd74d5f5	-0.059774358
29	0x3d08714a	0.033311166
30	0x3db4d7e7	0.088302426
31	0x3d1258a9	0.035729084
32	0xbdd9da9b	-0.10637399
33	0x3d63a9db	0.05558191
34	0x3dc669bb	0.09688135
35	0x3d9e7e85	0.077389754
36	0x3e654ec1	0.22393323
37	0x3e267789	0.16256537
38	0x3d32a603	0.043615352
39	0x3df3fa7a	0.11913009
40	0xbce443cb	-0.027864357
41	0xbd9b67d7	-0.07588165
42	0x3df9cb27	0.12196951
43	0x3d00e297	0.031466093
44	0xbd832b93	-0.064047955
45	0xba35f144	-0.00069405534
46	0xbc9da652	-0.019244347
47	0xbcc8804e	-0.024475243
48	0xbe02ef0b	-0.127865
49	0xbdb903cc	-0.09033927
50	0xbdd58248	-0.1042524
51	0x3db04788	0.086073935
52	0xbd842d5f	-0.06453966
53	0xbd89544e	-0.06705533
54	0xbd51de3e	-0.051237337
55	0xbc22dff3	-0.009941089
56	0x3d78dfdf	0.060760375
57	0xbbb9db16	-0.005671869
58	0xbdae0edf	-0.0849893
59	0x3d082380	0.03323698
60	0xbde53173	-0.11191072
61	0xbdfd3537	-0.123636656
62	0x3c23e1c9	0.010002562
63	0x3dad93cc	0.08475456
64	0xbd4c917b	-0.04994343
65	0x3d9bda62	0.076100126
66	0x3dbc42c1	0.0919242
67	0x3c959673	0.018260216
68	0x3cd1c9e2	0.02560896
69	0x3dcdd0e1	0.10049606
70	0x3e1ec056	0.15503058
71	0x3e389106	0.18024072
72	0xbd52ea88	-0.051493198
73	0xbe0cf690	-0.13765931
74	0x3cb475b8	0.022028789
75	0xbddaa387	-0.106757216
76	0xbd04df03	-0.032439243
77	0x3dd8b941	0.105822094
78	0x3d04b80c	0.032402083
79	0x3dcc6561	0.09980274
80	0x3df1ba34	0.118030936
81	0x3e97441b	0.29544148
82	0x3e974aa6	0.2954914
83	0x3e08491a	0.13309136
84	0xbc2831e8	-0.010265805
85	0xbd25923c	-0.040422663
86	0xbdf6235b	-0.12018462
87	0xbe910569	-0.2832444
88	0xbe9d1ab1	-0.30684426
89	0xbebdbe7c	-0.3705939
90	0x3e0a64cf	0.13515018
91	0x3dc5e8f6	0.096635744
92	0x3d3bc5c8	0.045842916
93	0x3e0d5635	0.13802417
94	0x3d3d4703	0.0462103
95	0x3d88ba17	0.06676119
96	0xbe485c88	-0.19566548
97	0xbe22d91e	-0.15903136
98	0xbdb2c45d	-0.087288596
99	0x3cf856cd	0.030314827
100	0xbe4e2f99	-0.20135345
101	0xbe043a69	-0.12912907
102	0x3d107a01	0.035272602
103	0x3dc054c5	0.093911685
104	0x3d30e100	0.043183327
105	0x3dcbf2aa	0.09958394
106	0x3e5bec3c	0.21476835
107	0x3e8e3380	0.27773666
108	0x3d9cabe7	0.07649975
109	0x3d4d48b5	0.050118167
110	0xbe848f41	-0.25890544
111	0x3e562186	0.20911226
112	0x3e067802	0.13131717
113	0xbdf07cf6	-0.117425844
114	0x3dde597c	0.108569115
115	0x3d8e16fb	0.06937977
116	0x3d423a3b	0.047418814
117	0x3c7647fc	0.015031811
118	0xbe244581	-0.16042139
119	0xbe2b6cd1	-0.16740729
120	0xbcfe7d0e	-0.03106549
121	0xbe8cffcd	-0.2753891
122	0xbe818349	-0.25295475
123	0xbd44a184	-0.048005596
124	0xbdb54055	-0.08850161
125	0xbd94c123	-0.072634004
126	0xbe1279b4	-0.14304239
127	0x3dcd216a	0.10016139
128	0x3c27cadf	0.010241239
129	0xbe852f59	-0.26012686
130	0xbe95b517	-0.29239723
131	0xbe0b753e	-0.13618943
132	0xbe936c1f	-0.28793427
133	0xbd301204	-0.04298593
134	0xbd9d9dd5	-0.0769612
135	0xbe61d18d	-0.22052594
136	0xbd9ab08c	-0.07553205
137	0x3d887c6c	0.066643566
138	0xbe8f4741	-0.2798405
139	0x3ccd0f33	0.025031662
140	0xbd8c38cc	-0.06846771
141	0xbe6b5db0	-0.22984958
142	0x3c8462d2	0.016160402
143	0xbcb74a37	-0.022374256
144	0xbe308e8d	-0.17241879
145	0xbe0fc996	-0.14041743
146	0xbc981344	-0.018563874
147	0xbe4ad2a8	-0.19806921
148	0xbe2cfa79	-0.16892423
149	0x3d501479	0.050800774
150	0xbd816a23	-0.06319072
151	0x3e21a0f6	0.15784058
152	0xbd1a6e75	-0.037702996
153	0xbe9ff55c	-0.31241882
154	0xbc7ffb3e	-0.015623866
155	0x3d82202a	0.06353791
156	0xbe9701c3	-0.29493532
157	0xbc911f56	-0.017715137
158	0x3d79036a	0.06079427
159	0x3d9c230d	0.07623873
160	0x3e6591c5	0.22418888
161	0x3e2fb99c	0.17160648
162	0x3c5095f4	0.012731064
163	0x3d0dc4c2	0.03461147
164	0x3d4ecc4f	0.050487813
165	0xbe0cf9c1	-0.13767149
166	0x3ae15d0d	0.0017193869
167	0x3dc5d167	0.09659081
168	0xbe3b0966	-0.18265304
169	0xbe328adf	-0.17435788
170	0x3e087043	0.13324074
171	0xbd9d9645	-0.07694677
172	0xbd94e142	-0.07269527
173	0xbde5aa00	-0.112140656
174	0xbdabe9c7	-0.08394199
175	0xbe74dc66	-0.239122
176	0xbe3f3d73	-0.18675785
177	0xbe16d7d3	-0.14730768
178	0xbdc0976e	-0.09403883
179	0xbd072cfb	-0.03300188
180	0x3dca3bf8	0.098747194
181	0xbd17476a	-0.03693334
182	0x3e7d1a2f	0.2471702
183	0x3dd55ed2	0.10418476
184	0xbc308271	-0.010773287
185	0x3e372e9f	0.17888878
186	0xbd0b95ca	-0.034078397
187	0xbcedb6cc	-0.029017828
188	0x3e729333	0.23688965
189	0x3df74654	0.12073961
190	0x3df47216	0.11935823
191	0xb905b3d2	-0.00012750857
192	0x3d818300	0.063238144
193	0xbdb71723	-0.0893996
194	0xbe2b68bf	-0.16739176
195	0x3dab004c	0.08349666
196	0xbd0e7b41	-0.034785513
197	0xbda0257d	-0.0781965
198	0x3db0455c	0.08606979
199	0x3d92f552	0.071756974
200	0xbc80dcde	-0.015730318
201	0x3d9de880	0.077103615
202	0xbde99c82	-0.114068046
203	0xbcf5aa5c	-0.02998846
204	0x3c5b4c54	0.013384897
205	0xbdc7ccc9	-0.097558565
206	0xbe11fb5e	-0.14256045
207	0x3dbd0288	0.092289984
208	0x3dfc47f7	0.12318414
209	0x3d7d7a58	0.061884254
210	0x3d79bc6a	0.0609707
211	0x3d9042a5	0.070439614
212	0x3dacf11b	0.08444425
213	0x3df5ce0f	0.12002193
214	0x3e03b963	0.12863688
215	0x3de1efc1	0.110320576
216	0x3d044477	0.032291856
217	0xbd884df5	-0.06655494
218	0xbc5f49b8	-0.013628416
219	0xbe13974c	-0.14413184
220	0xbcd40b46	-0.025884282
221	0xbd157234	-0.036485866
222	0xbc9cd4fa	-0.019144524
223	0x3e1e7c3b	0.15477078
224	0x3d9db6b9	0.07700867
225	0x3e0b6883	0.13614087
226	0xbcd28b2d	-0.02570113
227	0x3e0bd243	0.13654427
228	0x3dee2186	0.11627488
229	0xbd9da85a	-0.07698126
230	0x3b816cb8	0.003949728
231	0x3ec3be23	0.38231
232	0x3e04818e	0.12940046
233	0x3e34aa01	0.17642976
234	0xbe2fbe2c	-0.17162389
235	0x3bd41ecc	0.006473398
236	0x3d07e805	0.033180255
237	0xbd53fd18	-0.05175504
238	0x3d7eff88	0.062255412
239	0xbdac5df4	-0.08416358
240	0xbda3814a	-0.07983644
241	0xbb438f48	-0.002984004
242	0xbdf59a34	-0.119923025
243	0xbdf8dbed	-0.121513225
244	0x3c0ba0eb	0.008522253
245	0xbdb705e4	-0.089366704
246	0xbd90cf55	-0.070707954
247	0x3e05ff6d	0.13085718
248	0x3e2543bf	0.16139124
249	0xbdd4592f	-0.10368573
250	0xbd9f18b7	-0.07768386
251	0xbdfe447b	-0.12415405
252	0x3e8333b2	0.25625378
253	0x3de3b66e	0.1111878
254	0xbc97feeb	-0.018554172
255	0x3e7336fd	0.23751445

conv3.bias f4 [64]
0	0x3d5a083a	0.0532305
1	0xbbddcf4d	-0.006769097
2	0x3e240f8d	0.16021557
3	0xbce5c5d6	-0.028048437
4	0x3e184769	0.14870991
5	0x3e1edfbd	0.15515037
6	0x3dd966f3	0.10615339
7	0xbd11fef8	-0.035643548
8	0xbc6fae07	-0.014628894
9	0xbd976647	-0.07392555
10	0x3d1917ff	0.0373764
11	0xbbd2e256	-0.0064356728
12	0xbd38ea7e	-0.045145504
13	0x3d48abb6	0.04899188
14	0xbc7dbc8a	-0.015486846
15	0xbccec025	-0.025238106
16	0x3da116d9	0.07865686
17	0xbd1b663d	-0.0379393
18	0xbd30a675	-0.043127496
19	0x3e47e111	0.1951945
20	0xbdaada0b	-0.0834237
21	0xbc977fa4	-0.018493481
22	0xbdcc5fcf	-0.099792115
23	0xbd29b434	-0.04143162
24	0x3b2c6495	0.0026305069
25	0x3e9c365c	0.30510223
26	0xbcd6cad2	-0.02621976
27	0xbde24e45	-0.11050085
28	0xbcaba30d	-0.020951772
29	0xbd015e16	-0.031583868
30	0x3c4ba074	0.012428392
31	0xbc8c350a	-0.017115135
32	0xbd6a96fd	-0.0572729
33	0xbd4154a6	-0.047199868
34	0x3ccce051	0.025009306
35	0x3e73d0f4	0.23810178
36	0xbe0498da	-0.12948933
37	0x3e6d4b73	0.23173313
38	0xbdb1fc00	-0.08690643
39	0xbcdcf50d	-0.026972318
40	0x3e19b2a8	0.15009558
41	0xbcf3b727	-0.02975042
42	0xbcd5f094	-0.026115693
43	0x3d185656	0.03719171
44	0x3e4138fa	0.18869391
45	0x3daba4a2	0.083810106
46	0x3e9553de	0.29165548
47	0x3a25ed1e	0.00063295837
48	0x3dad957a	0.08475776
49	0xb8227bc5	-3.873908e-05
50	0xbcae3520	-0.021265566
51	0x3e6f9f62	0.23400643
52	0x3eafb6f1	0.3431926
53	0x3dc1ec22	0.09468867
54	0x3e067ec7	0.13134299
55	0xbd8107d4	-0.06300321
56	0x3e07953e	0.13240525
57	0x3cf0f646	0.029414307
58	0xbd3c7d5a	-0.046017982
59	0xbcec8bab	-0.028875193
60	0xbcf64dda	-0.03006642
61	0xbd8606f3	-0.06544294
62	0x3e27c023	0.16381888
63	0xbcc3dcde	-0.023909029

fc1.weight f4 [64, 1024]
0	0xbccde8dd	-0.025135452
1	0x3bcbb4da	0.0062166275
2	0x3b825214	0.0039770696
3	0xbcc8860b	-0.02447798
4	0xbcf0f4d0	-0.02941361
5	0xbd0f53c2	-0.034991987
6	0xbcbf8055	-0.023376623
7	0x3b962336	0.004581834
8	0x3cc2aa3a	0.023762811
9	0xbc6f5924	-0.014608655
10	0x3c42384b	0.011854242
11	0x3b1abf35	0.0023612503
12	0xbbe23f95	-0.006904552
13	0xbcefcb71	-0.029271813
14	0x3c58c108	0.013229616
15	0xbd30c363	-0.043155085
16	0xbc472f9c	-0.012157347
17	0x3cd5e474	0.026109912
18	0xbcc76516	-0.024340194
19	0x3cade270	0.021226138
20	0xbb460270	-0.0030213855
21	0xba051800	-0.00050771236
22	0xbc126d80	-0.00893724
23	0xbc26726c	-0.010159116
24	0xbb2ae740	-0.0026077777
25	0xbce52706	-0.02797271
26	0xb9ef4b80	-0.00045641884
27	0xbca9a81d	-0.020710045
28	0x3a1d9500	0.00060112774
29	0xbcb384f2	-0.02191398
30	0xbbd66fc8	-0.006544087
31	0xbcbd0c48	-0.023077145
32	0xbd026983	-0.031838905
33	0xbd0a1394	-0.033710077
34	0xbcabdb6b	-0.02097865
35	0xbc49ba04	-0.012312416
36	0xbcf48d6c	-0.029852591
37	0xbd17f552	-0.03709919
38	0xbbb28e5a	-0.0054490985
39	0x3c2bb9d4	0.010481317
40	0xbd0d8711	-0.034552637
41	0xbb86c5e7	-0.0041129473
42	0x3ca1a7e7	0.019733382
43	0xbd02f3c7	-0.031970765
44	0x378e2fb5	1.6949934e-05
45	0x3cb94ded	0.022620166
46	0xbc168cf5	-0.00918888
47	0xbce2eb6d	-0.02770015
48	0x3bb08884	0.0053873677
49	0x3cc1e85d	0.02367037
50	0xbb4c7428	-0.0031197164
51	0x3bf44dd3	0.0074555664
52	0xbb99723f	-0.0046828086
53	0xbcc67869	-0.024227338
54	0xbceadccb	-0.028669735
55	0x3bf60a67	0.0075085643
56	0x3ac893fb	0.0015302891
57	0x3b9c4d18	0.0047699325
58	0x3c68f38d	0.014218223
59	0x3c08da60	0.008352846
60	0x3bc832ae	0.006109557
61	0xbc860b2e	-0.016362753
62	0xbbdc40b0	-0.0067215785
63	0xbca93379	-0.020654427
64	0xbd06212a	-0.03274647
65	0xbcf140d6	-0.029449861
66	0x3cb1aa69	0.021687703
67	0xbcc572b3	-0.024102544
68	0x3c62fa71	0.013853655
69	0x3c1b0344	0.009461228
70	0x3c7e4a2e	0.0155206155
71	0xbc9c1027	-0.01905067
72	0xbbad9121	-0.0052968417
73	0xbc9580ac	-0.018249832
74	0x3ba4c0e9	0.0050278795
75	0x3c89600a	0.016769428
76	0xbcfd1536	-0.030893903
77	0xbc78c0ee	-0.015182717
78	0x3aacc2a3	0.0013180565
79	0xbb7870cf	-0.0037909036
80	0x3c1c0cfc	0.00952458
81	0xbaf4fcb8	-0.0018691039
82	0x3baa19cd	0.005191064
83	0x3c728d5e	0.014804212
84	0x39430706	0.00018599266
85	0x3c879b2a	0.01655348
86	0xbc27fa36	-0.010252526
87	0xbc1f611e	-0.009727744
88	0xbc842fb1	-0.016136022
89	0xbd3da079	-0.046295617
90	0xbcd3c13e	-0.025848981
91	0x3c4bf2f5	0.012448062
92	0xbcd22baf	-0.025655596
93	0xbcce1138	-0.025154695
94	0xbbc525c1	-0.0060164635
95	0xbb935b72	-0.004496985
96	0xbd038f0a	-0.032118835
97	0xbd46e59c	-0.048558816
98	0xba5bc833	-0.0008384019
99	0xbd2ad6af	-0.041708644
100	0xbbb3585a	-0.005473179
101	0xbd3a7581	-0.045522217
102	0xbcbdbb49	-0.023160594
103	0x3b9dbb93	0.0048136204
104	0xbc8e72a0	-0.017388642
105	0xbcebfd62	-0.028807346
106	0x3c2677c0	0.010160387
107	0xbc7da5a5	-0.015481387
108	0xbcccc134	-0.02499447
109	0x3a0ca8ea	0.00053657463
110	0xbca3393a	-0.019924749
111	0xbcc4d50e	-0.024027374
112	0x3cacf17e	0.021111246
113	0x3c8d5fc2	0.017257575
114	0xbc84928e	-0.016183164
115	0x3cbef51e	0.02331024
116	0xbcae4710	-0.02127412
117	0xbc3f5960	-0.0116790235
118	0x3cd75168	0.026283935
119	0xbcd61d34	-0.026136972
120	0xbc5beb71	-0.013422833
121	0x3c2a7415	0.010403653
122	0x3c34e412	0.011040704
123	0x3bf8ee12	0.0075967396
124	0x3c181e24	0.00928453
125	0x3c174988	0.00923384
126	0xbc33cf58	-0.010974728
127	0x3ce44bd4	0.027868189
128	0xbd11459e	-0.035466783
129	0xbd14ac03	-0.036296856
130	0x3bd0f1aa	0.006376465
131	0x3c78eb65	0.015192841
132	0xbbebc6bc	-0.007195322
133	0xbceaa362	-0.02864236
134	0xbc17dd68	-0.009269096
135	0xba7dae51	-0.0009677159
136	0xbc8b3829	-0.016994553
137	0xbb21c6bf	-0.0024685112
138	0x3c4996cb	0.012304018
139	0xbb8f293d	-0.0043689297
140	0xbbde32b7	-0.006780948
141	0xbc8d0f45	-0.017219195
142	0x3c14b989	0.009077438
143	0xbd4affff	-0.049560543
144	0x3c17eb8c	0.009272467
145	0x3ca3a45b	0.019975832
146	0x3ca7ea67	0.020497514
147	0x3cda1eef	0.026626078
148	0x3c8d3c66	0.017240714
149	0x3c9d6226	0.01921184
150	0x3c2bed1f	0.010493546
151	0x3c11c24e	0.0088964235
152	0x3ce78fec	0.02826687
153	0x3b2d6bfb	0.0026462066
154	0x3bae1d32	0.005313539
155	0xbcf76368	-0.030198768
156	0x3be077bb	0.0068502105
157	0xbcd044b4	-0.025423385
158	0xbbe0ed12	-0.0068641985
159	0x3ac9a437	0.0015384023
160	0xbcadcd00	-0.021215916
161	0xbd302cf0	-0.043011606
162	0xbc59552d	-0.013264936
163	0x3b76aa8b	0.0037638273
164	0xbb32bb79	-0.0027272387
165	0x3cbe0546	0.023195874
166	0xbc64497b	-0.013933535
167	0x3b033615	0.002002125
168	0xbcb2801a	-0.0217896
169	0xbca7ea62	-0.020497505
170	0xbcdbc34b	-0.026826521
171	0xbcbac553	-0.02279917
172	0xbc8283b9	-0.01593195
173	0xbd191610	-0.037374556
174	0xbcdd2fb2	-0.027000282
175	0x390df00b	0.00013536231
176	0xbc47a504	-0.012185339
177	0xbc4562b8	-0.012047462
178	0x3c24ead4	0.010065753
179	0x3ce8ce2c	0.028418623
180	0x3ad6b740	0.0016381517
181	0xbbd724d8	-0.0065656714
182	0xbc12b468	-0.008954145
183	0x3d033cd0	0.032040417
184	0xbc9ed733	-0.019389724
185	0xbcb4c004	-0.022064216
186	0xbcb34502	-0.021883491
187	0x3b5c3762	0.0033602347
188	0xbcf2b4e5	-0.029627273
189	0x3ced48cf	0.028965382
190	0x3ca79ee2	0.020461503
191	0x3cd51d23	0.02601487
192	0xbc3434d4	-0.010998923
193	0x3cddac6e	0.02705976
194	0xbc3387d4	-0.010957677
195	0x3c76cb7c	0.015063163
196	0x3c6249e0	0.0138115585
197	0xbc934856	-0.017978828
198	0x3d07ea9d	0.03318273
199	0x3b3d2d30	0.0028866045
200	0x397d9800	0.00024184585
201	0xbc483008	-0.012218483
202	0xbcc48ef2	-0.023993943
203	0xbb7c5d80	-0.0038507879
204	0x3c8cb333	0.017175293
205	0x3cbed7c0	0.023296237
206	0xbae71500	-0.001763016
207	0xbca9d272	-0.020730231
208	0xbc02d846	-0.007986134
209	0x3a935405	0.001124025
210	0x3a1473f7	0.0005663032
211	0x3c7b63f4	0.015343655
212	0x3bc927f4	0.006138796
213	0xbc5de888	-0.013544209
214	0xbc2e4442	-0.010636391
215	0x3c47e29e	0.012200026
216	0x3c7df504	0.015500311
217	0xbc82a611	-0.015948327
218	0xbbd251e9	-0.006418456
219	0x3cf331a1	0.02968675
220	0xbcbb4b83	-0.022863155
221	0x3c722d9b	0.014781381
222	0xbcd227a8	-0.025653675
223	0x3cc2604d	0.02372756
224	0x3bda41c7	0.0066606733
225	0xbd187540	-0.037221193
226	0x3cb85ac7	0.022504224
227	0xbb8d3702	-0.004309536
228	0xbcaa1f03	-0.02076674
229	0xbd15a7dd	-0.03653704
230	0xbb096b24	-0.0020968402
231	0xbc63a235	-0.013893654
232	0x3c28f180	0.010311484
233	0xbcb45d71	-0.022017213
234	0x3cb58e65	0.022162626
235	0xbd0bdf18	-0.034148306
236	0x3c91e830	0.017810911
237	0xbc65fee1	-0.014037819
238	0x3b90072a	0.0043953853
239	0xbcad630c	-0.021165393
240	0xbcd0bbe0	-0.02548021
241	0x39660700	0.00021937117
242	0x3bfcc948	0.0077144243
243	0x3b267330	0.0025398247
244	0x3c9af8ce	0.018917467
245	0xbc4f0274	-0.012634862
246	0xbc1c2d68	-0.00953231
247	0xb85a9800	-5.211681e-05
248	0x3af21480	0.0018469244
249	0x3c79e920	0.015253335
250	0xbcc6e3c1	-0.024278523
251	0xbacad4eb	-0.0015474831
252	0xbb9f18f8	-0.0048552714
253	0xbc05b514	-0.008160848
254	0xbcab7f24	-0.020934649
255	0x3c216bc4	0.0098523535

fc1.bias f4 [64]
0	0xbd02df4f	-0.031951245
1	0x3e160c7a	0.14653197
2	0xbda04644	-0.07825902
3	0x3e65702d	0.22406073
4	0xbd15af6f	-0.03654426
5	0x3e0f9e30	0.14025187
6	0x3e11f4c6	0.1425353
7	0x3e97ee6d	0.29674092
8	0xbe01baf0	-0.12668967
9	0xbd45b0eb	-0.048264425
10	0x3deff9ce	0.11717568
11	0xbcaacc3a	-0.020849336
12	0x3e5ef916	0.21774706
13	0xbcc90afb	-0.024541369
14	0x3c080116	0.00830104
15	0xbcf51cad	-0.0299209
16	0x3e5b1615	0.21395142
17	0x3e2eabb7	0.17057692
18	0xbd15232a	-0.03641049
19	0xbc584ab7	-0.013201407
20	0xbd2a6c22	-0.04160703
21	0x3e9a1328	0.3009274
22	0x3e5745c5	0.21022709
23	0xbc89a333	-0.016801452
24	0xbdec18d3	-0.11528172
25	0xbc234dcc	-0.009967279
26	0xbdda6747	-0.1066423
27	0x3dae9803	0.08525088
28	0xbcc666c5	-0.024218926
29	0x3da3b444	0.07993367
30	0xbd5a5d15	-0.053311426
31	0x3e366a6a	0.17814031
32	0x3e245814	0.16049224
33	0x3d1a834d	0.037722874
34	0xbcc1d314	-0.02366022
35	0x3e2d1aa3	0.16904692
36	0x3e17ad89	0.14812292
37	0xbd46ad08	-0.04850486
38	0x3e850115	0.25977388
39	0x3da4dac6	0.0804954
40	0xbd27cc70	-0.04096645
41	0x3e0da997	0.13834225
42	0x3d1f4df0	0.038892686
43	0xbcfd64ac	-0.030931793
44	0xbd18fe6a	-0.037352003
45	0xbb96cf39	-0.0046023396
46	0x3ea8dd16	0.32981175
47	0x3e6c24c3	0.23060898
48	0x3d27cde9	0.040967856
49	0xbda94367	-0.08264809
50	0xbd0d6875	-0.034523446
51	0xbd176b5e	-0.036967628
52	0xbd334557	-0.0437673
53	0x3dccb36e	0.09995161
54	0x3cc8ec94	0.024526872
55	0x3d3f9428	0.046772152
56	0xbc935eb5	-0.017989496
57	0x3ca0f4c8	0.01964797
58	0xbbf45685	-0.007456603
59	0x3dd0c833	0.10194435
60	0xbda5d33a	-0.08096929
61	0xbbec441c	-0.0072102677
62	0xbcbdf0bc	-0.02318608
63	0x3d7173d9	0.05894837

fc2.weight f4 [10, 64]
0	0x3c9b4a6f	0.018956391
1	0xbec50071	-0.384769
2	0xbd1fd7d3	-0.039024185
3	0x3e0091c0	0.12555599
4	0x3dcaa599	0.098948665
5	0x3cfc4d96	0.030798715
6	0x3e46c615	0.194115
7	0xbe83bea9	-0.257314
8	0x3e0b8652	0.13625458
9	0x3da224b8	0.0791716
10	0xbdefb8d7	-0.11705177
11	0xbda47f89	-0.08032138
12	0x3ca069f3	0.01958177
13	0xbdf7a2d1	-0.12091602
14	0x3d99e231	0.07513846
15	0x3dc6fa68	0.0971573
16	0x3d55ba3a	0.052179553
17	0x3e49be07	0.19701396
18	0x3dd2c8ee	0.102922305
19	0x3b081eee	0.0020770389
20	0x3daff7b0	0.085921645
21	0xbe9e583e	-0.30926698
22	0xbe26f4ca	-0.16304317
23	0xbd966aa5	-0.073445596
24	0x3e284ed0	0.16436315
25	0xbd21fdb7	-0.039548602
26	0xbd4e1509	-0.05031303
27	0xbe0672eb	-0.13129775
28	0xbd647aba	-0.055781104
29	0xbd4f7808	-0.05065158
30	0x3d1b9a3b	0.037988883
31	0xbe6baec8	-0.23015893
32	0x3dbcb739	0.092146344
33	0x3e0ac8a8	0.13553107
34	0x3d717891	0.05895287
35	0xbdabc974	-0.083880335
36	0xbda0109c	-0.07815668
37	0xbd47c711	-0.04877383
38	0xbe8ce1a0	-0.27515888
39	0x3e80b123	0.25135145
40	0xbe0d1056	-0.13775763
41	0xbdcc1669	-0.09965212
42	0xbe2bbfb5	-0.16772349
43	0xbdb910c8	-0.09036404
44	0x3d762a7d	0.060099114
45	0xbdac858e	-0.08423911
46	0x3df1223a	0.11774106
47	0x3cc57c7f	0.024107216
48	0xbe7b74df	-0.24556302
49	0xbe4085b4	-0.18801004
50	0xbd1f1fc9	-0.038848672
51	0xbe4146ef	-0.18874715
52	0xbc9f1010	-0.019416839
53	0x3dddab2d	0.10823665
54	0x3c89409b	0.01675444
55	0x3e103e25	0.14086206
56	0x3d3dd5cb	0.046346467
57	0x3d170915	0.036873896
58	0xbe0c523a	-0.13703242
59	0x3e92c864	0.2866851
60	0x3c9ed2a8	0.019387558
61	0x3d497ed5	0.049193222
62	0xbdc1c9d9	-0.094623275
63	0x3cdc3639	0.026881324
64	0x3dda81e1	0.10669304
65	0xbd9a8054	-0.07544008
66	0x3d6b892c	0.057503864
67	0xbe37db82	-0.1795483
68	0xbdb92fbd	-0.090423085
69	0xba3feaa6	-0.0007321037
70	0x3df1573a	0.11784215
71	0xbeb3ad0e	-0.35092968
72	0x3d0c0fb5	0.034194667
73	0x3cb85099	0.02249937
74	0xbd29c26e	-0.04144519
75	0xbd080663	-0.033209216
76	0xbdf61d8d	-0.12017355
77	0x3cf4a7be	0.029865142
78	0x3dbad91e	0.09123443
79	0x3d720c1b	0.059093576
80	0xbebe0800	-0.3711548
81	0xbea72d61	-0.3265181
82	0x3dd63e49	0.10461099
83	0xbecdcd1f	-0.40195557
84	0xb91594cc	-0.00014265178
85	0xbea19143	-0.31556138
86	0xbe5676f7	-0.20943819
87	0x3da1e79d	0.07905505
88	0x3e50a213	0.20374326
89	0xbd2f0695	-0.042730886
90	0x3e670b02	0.22562793
91	0x3e015de8	0.12633479
92	0xbd8ced92	-0.068812504
93	0xbaa35c63	-0.0012463446
94	0x3e096983	0.13419156
95	0x3e0b910b	0.13629548
96	0x3e55960b	0.20858018
97	0xbc96164c	-0.018321179
98	0xbd61c033	-0.055114936
99	0x3d6903e2	0.05688847
100	0xbe08fb6d	-0.13377161
101	0xbc55f6d1	-0.013059334
102	0xbe89129b	-0.26772007
103	0xbe27381d	-0.1633
104	0x3cf2bf55	0.02963225
105	0xbd6b0040	-0.057373285
106	0xbd6c6447	-0.05771282
107	0xbd6e01e9	-0.05810729
108	0xbd6ee4a1	-0.058323506
109	0xbdc1cca4	-0.0946286
110	0xbee7c87b	-0.45270142
111	0xbd965eca	-0.07342298
112	0x3dbc3abd	0.09190891
113	0x3e6a73fd	0.22895809
114	0xbc512f39	-0.012767606
115	0x3e17ba5b	0.14817183
116	0xbddb7dd3	-0.107173584
117	0xbde49f17	-0.111631565
118	0xbd5af140	-0.05345273
119	0xbe83e1eb	-0.257583
120	0x3dec027e	0.11523913
121	0xbe979757	-0.2960765
122	0x3d84ff8a	0.06494053
123	0x3d8c43d7	0.06848877
124	0x3e24e3e3	0.16102557
125	0x3bc5b36c	0.0060333516
126	0xbdd43c6c	-0.10363087
127	0x3b3efd55	0.0029142697
128	0x3c9d6d4b	0.019217154
129	0x3e744093	0.23852758
130	0xbe4f22ed	-0.20228167
131	0x3df50363	0.119635366
132	0xbc922454	-0.017839588
133	0xbe6f1cf5	-0.2335089
134	0xbe14ef02	-0.14544299
135	0xbe207a15	-0.1567157
136	0x3e81c137	0.25342724
137	0x3c41883c	0.011812266
138	0x3e5b4500	0.2141304
139	0xbdb09c2f	-0.0862354
140	0x3dbb1559	0.09134931
141	0xbdfa4fb0	-0.122222304
142	0xbd876999	-0.06611938
143	0x3d941867	0.07231217
144	0xbbfff7bd	-0.007811515
145	0x3de2ea49	0.110798426
146	0xbe8000f2	-0.2500072
147	0x3e08f836	0.13375935
148	0xbda4c6bb	-0.08045717
149	0xbd245f94	-0.040130213
150	0xbd62ad44	-0.05534102
151	0x3cebe34f	0.028794913
152	0x3d09d777	0.03365275
153	0xbda3b92d	-0.07994304
154	0xbd9a1a52	-0.075245515
155	0xbdddb044	-0.108246356
156	0x3daa45e3	0.08314111
157	0x3dc7c7e8	0.09754926
158	0x3e9114e2	0.28336245
159	0x3e8e8f83	0.27843866
160	0xbdb4c438	-0.08826488
161	0xbd80ee5f	-0.06295466
162	0x3c1d5d48	0.0096047595
163	0xbea593c3	-0.32339296
164	0x3aaaa594	0.0013019317
165	0x3d82c3f6	0.06385033
166	0xbe663276	-0.22480187
167	0xbd90bb32	-0.07066955
168	0xbd2c93b8	-0.042133063
169	0xbe01d478	-0.12678707
170	0xbdc74d7f	-0.09731578
171	0xbe42e6e5	-0.19033392
172	0xbd316623	-0.043310296
173	0x3c237b36	0.009978106
174	0xbd4105d2	-0.04712469
175	0xbe62ddca	-0.22154918
176	0xbbc605b1	-0.006043159
177	0xbd851ef0	-0.065000415
178	0x3da432a1	0.08017469
179	0x3dd472c3	0.103734516
180	0x3d8ccbb4	0.06874791
181	0x3d202f16	0.039107405
182	0x3d53b8ba	0.05168984
183	0x3dddb6d2	0.10825886
184	0x3e38aab6	0.18033871
185	0x3e82ae32	0.25523525
186	0x3dbfed69	0.09371454
187	0xbe7cd305	-0.24689873
188	0xbde3cac6	-0.1112266
189	0xbd0ffb1d	-0.03515159
190	0xbe130655	-0.14357884
191	0xbe0dd6b9	-0.13851441
192	0x3db185c9	0.086680956
193	0x3cef4302	0.029206757
194	0xbde13301	-0.10996056
195	0xbe32bd50	-0.1745503
196	0xbda93f6a	-0.082640484
197	0xbd7f4a15	-0.06232651
198	0xbe860bd9	-0.26180914
199	0x3e152b5b	0.1456732
200	0x3d657d90	0.05602795
201	0xbc789a44	-0.015173499
202	0x3d86cc8d	0.06581984
203	0xbe0ba7df	-0.13638256
204	0x3dfd8f2a	0.12380822
205	0xbdba76e4	-0.09104708
206	0xbe679bdc	-0.2261805
207	0x3d62c469	0.055363093
208	0x3e340c5e	0.17582843
209	0x3dccd82d	0.1000217
210	0x3c360232	0.011108922
211	0xbe482a0c	-0.1954729
212	0x3d2595db	0.040426116
213	0x3d51b8bb	0.051201563
214	0x3e17823e	0.14795777
215	0x3d0f5bde	0.03499972
216	0xbe2cfeeb	-0.16894118
217	0x3d9154a6	0.070962235
218	0x3df06591	0.11738122
219	0xbe369629	-0.17830719
220	0x3d22c719	0.039740656
221	0x3c973e8c	0.018462442
222	0x3c06f668	0.008237459
223	0xbe8e178c	-0.2775234
224	0x3c6fc924	0.014635358
225	0xbd652587	-0.055943992
226	0xbd13d114	-0.036088064
227	0x3ce8d456	0.028421562
228	0xbc0dc1c4	-0.008652154
229	0x3d698676	0.057012998
230	0xbd41f481	-0.047352318
231	0x3e0d4e41	0.13799383
232	0x3ce9f1b0	0.028557628
233	0x3bc134c8	0.0058961846
234	0xbd485271	-0.048906747
235	0xbc48723c	-0.012234267
236	0x3cab10d0	0.02088204
237	0xbda9ad3c	-0.08284995
238	0x3db91a9d	0.09038279
239	0xbe245d59	-0.16051234
240	0x3e350452	0.1767743
241	0x3deda01c	0.11602804
242	0xbcff58cd	-0.031170273
243	0x3e085656	0.13314185
244	0xbd81f286	-0.06345086
245	0xbe80b350	-0.25136805
246	0xbcfae216	-0.030625384
247	0x3dff0896	0.124528095
248	0xbe2e0256	-0.16993079
249	0xbd772d8b	-0.060346168
250	0xbe10dded	-0.14147158
251	0x3c619fe8	0.013771035
252	0xbe635df6	-0.22203812
253	0x3b16ec00	0.002302885
254	0xbdfe6437	-0.12421458
255	0x3d3a6d95	0.04551466

fc2.bias f4 [10]
0	0xbdb60b44	-0.088888675
1	0xbe9b883b	-0.30377373
2	0xbd725622	-0.059164174
3	0xbc9d14c3	-0.019174939
4	0x3e322d8b	0.17400186
5	0x3dd3b74f	0.10337698
6	0x3d10f0a3	0.03538574
7	0x3bd0bacc	0.006369924
8	0xbb2f5dfb	-0.0026758898
9	0xbda6ec3e	-0.08150528
