jenny.pth (torch, 493733 bytes, 10 tensors)

conv1.weight f4 [32, 3, 3, 3]
000000 57 e8 a2 be 6c 95 f5 3c d9 9b 88 be 70 89 c7 be
       -0.31817886 0.029978476 -0.26681402 -0.38972044
000010 01 25 96 3e db 8b 1a be 2a 3a 18 be 43 ec 9b 3e
       0.29325107 -0.15092413 -0.14865938 0.3045369
000020 ac 1d 26 be df ea 46 be 74 2b b4 3e c5 09 a9 3d
       -0.16222256 -0.19425534 0.35189402 0.082538165
000030 94 15 06 be d8 02 7c 3e 38 18 03 3d db b7 39 be
       -0.13094169 0.2461046 0.03200552 -0.18136542
000040 b5 7e 77 3e 0a d5 ab 3d b8 42 e6 bd cc 3f 5c 3e
       0.24169429 0.08390243 -0.11243194 0.21508712
000050 b5 86 a4 be b4 2a 8a bd 12 41 04 3e 6a 94 4f bc
       -0.32134023 -0.06746426 0.12915447 -0.012669662
000060 ac 67 d8 3d 8f 1f 20 3e 76 a2 0d 3d 90 47 4f 3d
       0.10566649 0.15637039 0.034578763 0.050605357
000070 7f cf 1d 3b 12 ba f1 3d 06 43 55 be 52 c8 24 be
       0.0024079976 0.11803068 -0.20826349 -0.16092041
000080 5a 43 69 be 66 82 04 be 34 1f 0d be c1 a3 ea bd
       -0.22779599 -0.12940368 -0.13781434 -0.11457015
000090 0f 15 50 3e 2e b8 2a 3d 26 17 1c be 80 3e b4 bd
       0.20320533 0.041679554 -0.15243205 -0.088009834
0000a0 00 f8 75 3e eb 00 4f 3e 53 22 ae bb d2 58 1d 3d
       0.24020386 0.20215194 -0.0053141504 0.038414784
0000b0 6f 81 0c be a0 a7 2c be 59 a9 e9 bd af 5d a9 3c
       -0.1372125 -0.16860819 -0.114092536 0.020674555
0000c0 23 54 8a 3e d6 74 49 3d ba ad f0 3d 58 02 70 3e
       0.27017316 0.04918369 0.11751886 0.23438394
0000d0 53 2f 09 3e 9e 63 7e 3e 2f 76 12 be 71 5f 76 be
       0.13396959 0.24842688 -0.14302896 -0.24059846
0000e0 82 3f 1a 3e d2 a2 24 be d0 dd 5a be 26 4b 62 be
       0.15063289 -0.16077736 -0.21373677 -0.2209898
0000f0 27 29 9d 3e f9 fb 18 bc bf 13 80 3c ce 0b dc bd
       0.3069546 -0.009337419 0.015634416 -0.10744439
000100 44 0b 6a bd 24 34 09 3e b4 25 f7 bd cf b2 9e bb
       -0.05713965 0.13398796 -0.12067738 -0.004843093
000110 71 3d 67 be 39 0d 83 3e 80 f8 94 3e 16 fb 2a 3e
       -0.22582032 0.25596026 0.2909584 0.16697344
000120 d1 b9 99 ba 0c e2 23 be 60 a7 37 be ba 93 ac 3d
       -0.0011728351 -0.16004199 -0.17934942 0.08426614
000130 6f a6 e6 bc 98 b6 6a be 68 eb 27 3e ea 39 79 3e
       -0.028155534 -0.22921216 0.16398394 0.24338499
000140 c0 b6 15 3e a5 a0 c0 3c 88 9f 8c 3d 79 c3 6b bd
       0.14620495 0.023514101 0.06866366 -0.057559464
000150 0e 14 1c be 58 a8 33 3e 05 fe 58 3d 8c 17 bb 3d
       -0.15242025 0.17544687 0.052976627 0.091353506
000160 7f 17 67 bd 33 61 93 be 97 a8 41 be 65 9a 14 3e
       -0.056418892 -0.28785095 -0.18911968 0.14512022
000170 2a a8 20 3e 21 11 28 3e 10 ec 4a 3d 05 d9 08 be
       0.1568915 0.16412784 0.049541533 -0.13364036
000180 42 b8 75 3d 6a 0c 82 bd ff 9d 29 be 99 8c f6 3d
       0.059990175 -0.06350024 -0.16564177 0.120385356
000190 bb f8 57 3e 66 cb 3f 3e d2 d1 46 3e ab 43 39 3e
       0.21090977 0.18729934 0.19415978 0.1809222
0001a0 4f bd 46 bd 5a c9 8e 3d f0 09 1a 3d 16 23 29 be
       -0.048520382 0.069719985 0.037607133 -0.1651729
0001b0 79 e3 09 3e ea 07 85 3e cb ee b6 bd 96 3c dd 3c
       0.1346568 0.259826 -0.08932265 0.027006429
0001c0 11 80 d4 be ef 63 2b 3e fe 87 a5 bd 8c ac e7 bd
       -0.41503957 0.1673734 -0.08082579 -0.113122076
0001d0 fc 06 5a 3d a5 18 6b 3e 90 75 0b be 6e e0 46 be
       0.053229317 0.2295862 -0.13619065 -0.1942155
0001e0 e7 d6 cb 3d c6 9b 9a be a7 d1 68 3d e2 4f 13 be
       0.09953099 -0.3019697 0.056840565 -0.14385942
0001f0 51 31 05 3e a9 53 8c 3e 61 dc aa 3d 8c 31 2c bc
       0.13007094 0.27407578 0.08342815 -0.01050986
000200 37 95 33 be e9 11 9e 3c b0 31 b7 bd 5b 7b 49 3e
       -0.1753739 0.01929565 -0.08945024 0.19675963
000210 ff 98 31 3d 53 00 2a bd a5 7a 94 3c e4 8f 7a be
       0.0433588 -0.041504215 0.018124888 -0.24468952
000220 ab ac 7b be 7d e8 99 3d 51 0f 50 bd 1d 0e 2f be
       -0.24577586 0.07515047 -0.050795857 -0.17095228
000230 e6 cc 98 3e 9f 87 44 bb c4 ba 09 3e 31 d4 17 3d
       0.29843825 -0.0029988063 0.13450152 0.037067596
000240 da c5 50 be ef 10 8e 3d cf 6e 3f bd 88 d2 4d 3d
       -0.20387974 0.069368236 -0.046736535 0.050249606
000250 85 eb 91 bd 34 a4 14 3d ae 66 4f be 1f 8d 58 be
       -0.07125 0.03628941 -0.20254013 -0.21147583
000260 78 f0 a9 bd 02 ce aa 3e a3 3b 70 3e ae ab 53 bd
       -0.08297819 0.33360296 0.2346025 -0.0516774
000270 93 e5 c4 3d ff 89 7a bd f4 35 74 3c 34 b5 78 3e
       0.096141 -0.06116676 0.014905442 0.24287874
000280 d0 38 a7 3d 74 a4 45 be 9f 14 d3 3e e6 35 80 3e
       0.08165133 -0.19301015 0.4122667 0.2504112
000290 b1 32 a7 3e 52 30 f2 3d d4 0f 9e bd 3b ec f7 bd
       0.32655862 0.118256226 -0.07717863 -0.12105604
0002a0 77 c8 0a be 28 82 8f be a8 87 90 be 53 6b f1 3d
       -0.13553034 -0.2802899 -0.28228498 0.117880486
0002b0 75 62 10 3e e8 ce 36 3d 85 ae b4 3d 5a a1 47 bd
       0.14100058 0.044630915 0.088223495 -0.04873786
0002c0 92 a2 3b be ff 81 73 be e2 d1 38 be 2b db c4 3d
       -0.18323734 -0.23780058 -0.18048814 0.096121155
0002d0 78 6c 3c be 70 f0 08 3e cb 4a b6 3d 10 7d 8e 3e
       -0.18400753 0.1337297 0.089009844 0.2782979
0002e0 c6 e0 15 be 5d ed 8d bd 00 2e 15 be 9f ee ac 3c
       -0.14636526 -0.06930039 -0.14568329 0.021109877
0002f0 37 dc 18 bd e5 fb f7 3d f0 7d c7 bc 97 35 62 be
       -0.03731939 0.12108592 -0.024352044 -0.22090755
000300 84 72 41 be 94 b2 15 be 78 4e a1 3d 2b 50 95 bc
       -0.1889134 -0.14618903 0.07876295 -0.018226704
000310 cd b3 da 3e 30 90 82 3e 03 76 4a 3e 74 a3 d5 bc
       0.42715302 0.2550063 0.1977158 -0.026078917
000320 26 38 27 be f0 dd 81 be bf 7b a8 be e0 62 40 3d
       -0.16330013 -0.25364637 -0.3290691 0.046969295
000330 06 40 18 be ea af 55 3d 27 56 4e bd c5 07 a0 3e
       -0.14868173 0.052169718 -0.05037513 0.31255928
000340 7c ed 6f 3c 65 f0 6c 3e 39 67 86 bd 61 97 22 be
       0.014644023 0.23138578 -0.06562657 -0.15878059
000350 88 b1 1a 3d aa 47 f8 3c 0c bc 3d bd 61 72 a5 bd
       0.037766963 0.03030761 -0.046321914 -0.08078457
000360 8e 75 fd 3d 21 41 db 3d 1e 56 49 be c9 cc 26 3e
       0.123759374 0.10705782 -0.19661757 0.16289057
000370 c2 7e 96 3d 8f a2 73 3d 9e da ab bd f6 79 68 3e
       0.07348396 0.0594812 -0.08391307 0.22702774
000380 ee 7e 2c 3d be 15 89 be e6 38 32 bd f4 1d 7e be
       0.042113237 -0.267744 -0.043511294 -0.24816114
000390 e3 96 0f 3e 91 29 1b 3d bf da 88 3d 91 c1 4b 3e
       0.14022402 0.037881438 0.066823475 0.19898058
0003a0 31 72 86 3d 4f f8 cb 3d bf 7b 4a 3d 73 0f a8 bd
       0.06564749 0.099594705 0.04943442 -0.08206072
0003b0 1a e2 9f 3d 09 b1 1e be c5 76 07 3e 62 f5 2b be
       0.07806797 -0.15497221 0.132289 -0.16792825
0003c0 10 80 bb 3d fd c0 37 3c 0e a0 22 3d 29 fc f3 3d
       0.09155285 0.011215446 0.03970342 0.1191333
0003d0 ab 31 db 3c c6 fa b1 be 4e 20 7d 3e 40 89 ec 3d
       0.026757082 -0.34761637 0.24719355 0.11549616
0003e0 15 f7 af bd 3d fa 61 3e 05 9e ef 3d 83 33 9c be
       -0.08592049 0.22068115 0.11700062 -0.3050805
0003f0 52 ef 09 be b1 3e 17 3d 8a a2 10 3e ef 39 b4 bd
       -0.134702 0.03692502 0.14124504 -0.088001125

conv1.bias f4 [32]
000000 eb aa 55 be e7 23 e0 3d da 1f 36 be fd ec 80 be
       -0.20865981 0.10944348 -0.17785588 -0.25180808
000010 97 d8 55 bd ec 0f 2e 3c 45 3e ee bd d4 c6 75 bd
       -0.05220851 0.010623913 -0.11632971 -0.06000407
000020 42 7e b5 be 6f 5b 24 bd b9 ef 1f bd 7a 56 52 bd
       -0.3544789 -0.04012626 -0.039046977 -0.051352
000030 61 ba 94 bd 1a b3 07 bd ec de 3a bd f1 dc eb bc
       -0.072621115 -0.03312979 -0.04562275 -0.028791877
000040 9e 4c 0e be 09 1b f0 bc 77 57 c1 be 4c 7c aa bb
       -0.13896415 -0.029309766 -0.37762043 -0.0052028056
000050 f4 33 1b bd 0a 55 57 bc 89 e2 95 bd 66 b2 6c bd
       -0.037891343 -0.0131428335 -0.07318599 -0.05778732
000060 ca ed 1a be 06 de 97 bd b5 c4 6c 3c 79 b8 2b be
       -0.15129772 -0.074153945 0.0144511955 -0.1676959
000070 c8 9c 93 be 53 0a 99 bd df b7 7d bd a2 5e 77 be
       -0.28830552 -0.07472672 -0.06194293 -0.24157193

conv2.weight f4 [64, 32, 3, 3]
000000 c1 1d 63 bd 4a b9 f2 bd a6 66 8b be 1c 5e cd 3d
       -0.055448297 -0.11851747 -0.27226752 0.100277156
000010 ec a0 90 3d 63 50 ed bc 54 de b1 3d 47 25 60 3e
       0.070619434 -0.028968995 0.08684984 0.2188922
000020 41 3a 30 bc 1c f7 a4 be 71 4d 42 be 01 65 41 be
       -0.010756076 -0.3221978 -0.18974854 -0.18886186
000030 ed 13 cb 3d 3d 63 b1 3d ed 26 cf 3d 4a 73 80 3e
       0.0991591 0.08661506 0.101148464 0.2508796
000040 25 d3 46 3e ff 2d 40 3e ff 04 69 bd dc ea d6 bb
       0.19416483 0.18767546 -0.05688953 -0.006558759
000050 a9 cf a7 bc 0f a4 c2 bb f8 bc 4d 3d 2d e4 57 3d
       -0.020484762 -0.0059399675 0.050229043 0.05270784
000060 10 e3 0a 3e 20 ff 2f 3c f0 f6 83 3d dc 06 bf be
       0.1356318 0.010741979 0.06443584 -0.3730992
000070 0d 51 72 be bc da 90 bd 5a dc 43 be 11 39 5e be
       -0.23663731 -0.0707297 -0.19127026 -0.21701457
000080 48 10 12 bb 85 2d 46 3e c9 c7 47 3e 48 fe 4a 3e
       -0.0022287536 0.19353302 0.19509806 0.19823563
000090 56 5e 46 bc 7e a5 1a be c2 34 81 bc cd 2b 06 3e
       -0.012107452 -0.15102193 -0.015772227 0.13102646
0000a0 4e 3e 4e 3d 1e 2a fa 3d 66 d5 4c 3e d3 db 88 3d
       0.050352387 0.122150645 0.2000328 0.06682553
0000b0 02 26 e3 bd c5 4d b0 be 89 6c 98 be 8f b0 3f be
       -0.11091234 -0.34434333 -0.29770306 -0.18719696
0000c0 20 84 f7 bd df ff 34 bd 48 37 03 be 77 ce 39 3b
       -0.12085748 -0.04418933 -0.12814057 0.0028351822
0000d0 2c bb 8f 3d 3c e8 64 3c 92 2f 69 be f6 ea 82 be
       0.07018122 0.013971385 -0.22772053 -0.25569886
0000e0 c3 69 38 bd 26 74 b0 3c f6 65 7b bd d8 ef 5e be
       -0.045022737 0.021539759 -0.061376534 -0.2177118
0000f0 46 d2 84 3d 4f c8 f4 bd ae 35 fc bd 81 d3 02 bd
       0.06485419 -0.11952268 -0.12314926 -0.031939987
000100 d6 d5 47 be 84 f2 54 bd dc 11 4b b9 48 3e 1d be
       -0.19515166 -0.051989093 -0.00019366242 -0.1535579
000110 e1 bf 41 bd e1 26 b6 3d 4a 6d cf bc 98 6b 6b be
       -0.04730213 0.08894134 -0.025320668 -0.22990263
000120 5a 83 8b be 15 2e 38 be 59 be 7d be a2 59 55 bd
       -0.2724865 -0.17986329 -0.24779643 -0.052087434
000130 03 35 b8 3d a3 9a 40 3e 67 94 b7 3b ce f5 4c 3c
       0.08994486 0.18808989 0.0056024077 0.012509776
000140 e4 b4 60 3d a0 75 7a be 94 9a 34 be 24 f5 81 3c
       0.05486001 -0.24458933 -0.17637092 0.015863962
000150 58 6f 66 3c 9a 9a 7e 3d 6f f1 c8 3d 5c 9d 89 3d
       0.014064632 0.06215916 0.09811675 0.06719467
000160 a9 09 b4 3d bb e8 48 3e 9e 0d 4c 3d f2 b8 0c 3e
       0.08790905 0.1962003 0.049817674 0.13742426
000170 be 13 02 3d 7b b0 0f 3e 55 9b 71 3e 54 95 d0 3d
       0.03175711 0.14032166 0.2359441 0.10184732
000180 8c d3 6b 3e a5 ac 30 3e 7d 8c 28 3d 58 bb 62 bd
       0.23029917 0.17253359 0.041149605 -0.055354446
000190 87 f7 2d be 7c 7a 45 be 90 61 b7 bc 2c ce da bd
       -0.16988955 -0.19285005 -0.022385389 -0.106838554
0001a0 60 6d 2a 3d 0a 1e 45 3d ab 96 2e be 0a a4 83 3d
       0.041608214 0.04812435 -0.17049663 0.06427772
0001b0 46 2c 58 be 3a d6 72 bc 36 26 16 3d 95 a2 f0 bd
       -0.21110639 -0.014821583 0.036657535 -0.1174976
0001c0 10 7f 8b bd ca 02 24 3d f5 ee 84 bd 69 6d 69 bd
       -0.068113446 0.040041722 -0.0649089 -0.056989107
0001d0 05 a0 6f 3d d5 22 b5 3d 3a f3 c7 bd 4c 38 07 bd
       0.058502216 0.08844534 -0.09763189 -0.033012673
0001e0 64 cf 1c bc b3 d3 0f be 2c d0 1f bd 5f e1 5b bd
       -0.00957093 -0.140456 -0.039016888 -0.053681727
0001f0 2a f8 15 be 41 86 4b be 3c 0b 19 3d 22 2b 81 3c
       -0.14645448 -0.19875433 0.03736423 0.015767638
000200 5c f3 a2 3d 7a 07 9c 3d 0f d7 5e 3d 48 a8 14 3e
       0.07956573 0.076186135 0.054404315 0.14517319
000210 a7 31 ca 3d ab e9 c6 3d 49 9a 08 3b 5d 88 85 be
       0.09872752 0.097125374 0.0020843914 -0.260806
000220 79 b3 77 be 92 ac 00 be 58 4e 78 3d a2 14 ab bd
       -0.24189557 -0.1256583 0.06062159 -0.08353545
000230 a2 75 2e bd 60 a1 a9 3e dc d5 83 3e b2 75 8d 3e
       -0.042592652 0.33130932 0.257491 0.27628857
000240 78 53 4a 3e 75 f9 34 3e a7 8d 12 3c a3 72 fe 3d
       0.19758403 0.17673285 0.008944905 0.12424209
000250 a1 67 bc 3c 47 80 d8 bb e8 a1 0e bc b1 f6 0b be
       0.022998633 -0.0066070887 -0.008705594 -0.13668324
000260 3b 50 f9 bd ea 2a 37 be 08 a0 e7 bc 42 e9 05 bd
       -0.12173506 -0.17887464 -0.028274551 -0.032693155
000270 54 17 84 bd 2c c5 36 3d a3 38 03 bb f9 da fd bd
       -0.06449762 0.04462163 -0.0020022772 -0.12395281
000280 00 b6 b2 bc c8 dc 48 3d 42 7d 46 be 18 0e 68 be
       -0.0218153 0.04903868 -0.1938372 -0.22661626
000290 5d 74 22 be 06 49 97 bd 17 06 3b be f3 d9 0a 3e
       -0.15864702 -0.07386975 -0.18264042 0.13559704
0002a0 78 34 40 bd 4d 9c 57 be 50 5e 86 3d 64 43 73 bc
       -0.046925038 -0.21055718 0.065609574 -0.01484761
0002b0 3d 50 0e be a3 0a 42 3d ff a4 a4 3d d9 27 61 3b
       -0.13897796 0.047373425 0.08039283 0.0034356026
0002c0 94 b5 9f 3d 46 c3 23 3e 61 5d dc 3d be f2 63 3d
       0.07798305 0.1599246 0.10759998 0.05565142
0002d0 c7 4e 3f be 76 80 84 be b9 21 b3 bc 47 47 b6 bd
       -0.18682395 -0.25879258 -0.021866666 -0.08900314
0002e0 db 69 bf 3d ed 75 83 3d 46 38 33 3d 99 f3 33 3d
       0.09346362 0.06418977 0.04375484 0.043933485
0002f0 07 17 79 3d fc 4c e0 be 3a 69 ba be 8a ca 0b be
       0.060812976 -0.43808734 -0.36408406 -0.13651481
000300 a9 64 a5 be 8c 6d d7 bd f7 ff 9a bd 11 67 96 3c
       -0.3230336 -0.10518941 -0.07568353 0.018359693
000310 67 4f 3d 3e ae 1d 04 3e 80 6f 0a be 4b 72 90 be
       0.18487321 0.12901947 -0.13519096 -0.282122
000320 d5 97 53 be 0f e1 39 3e 47 aa 70 3e 0e dc 62 3e
       -0.20663388 0.1815226 0.23502456 0.22154257
000330 9d e7 44 3e e5 fc 4b 3e 78 21 c9 3d 47 73 26 be
       0.19228978 0.1992069 0.09820837 -0.16254912
000340 1c a2 69 be 65 b3 10 be 9c 30 a3 bd 92 51 5c be
       -0.22815746 -0.14130934 -0.07968256 -0.21515492
000350 55 8c 7d bd 4b f2 a3 bd b1 09 26 be b8 58 43 bd
       -0.06190141 -0.08005198 -0.16214634 -0.04769203
000360 4d 0d 74 be a2 ab 84 be ff 35 7e bd 19 a7 37 be
       -0.23833199 -0.25912195 -0.062063213 -0.17934836
000370 df d1 5d bd 24 11 30 be ac 99 a2 3d 82 e5 11 bd
       -0.054155227 -0.17194039 0.07939467 -0.035619266
000380 4f ac b3 bd 37 d5 40 be 43 2d 15 be 4a c9 16 bc
       -0.087731 -0.18831335 -0.14568047 -0.0092032645
000390 1b 1e 82 bd 53 53 d1 bc 25 9e 0b be 9d cb 9a 3c
       -0.063533984 -0.025552427 -0.13634546 0.018895919
0003a0 59 10 c0 bc 60 32 9a bd 5b 6e 03 be f6 65 2c be
       -0.023445295 -0.075291395 -0.12835066 -0.1683577
0003b0 00 95 4d be a5 75 25 bd 6f a6 96 3c 33 e1 d2 3d
       -0.2007637 -0.040395398 0.018389909 0.102968596
0003c0 96 cf 9a 3d 97 ef 02 bd f3 41 2c 3d ec 79 86 bb
       0.07559125 -0.031966772 0.04205508 -0.0041038897
0003d0 6f e5 c8 be 97 d4 61 bd 79 bb 98 bd 9a eb f9 bd
       -0.39237544 -0.055134382 -0.074576326 -0.122031406
0003e0 f2 18 a5 3c e2 b3 c4 3c 3b f1 d4 3c f5 db 7c 3d
       0.020153496 0.024011556 0.025993934 0.061733205
0003f0 7d ce 2d be 85 c1 eb bd bc 22 40 be c2 97 2f be
       -0.169733 -0.1151152 -0.1876325 -0.17147735

conv2.bias f4 [64]
000000 f3 41 35 be 1a 3b 00 3c c9 07 60 3e 47 1a 83 be
       -0.17700939 0.007826591 0.2187797 -0.25605986
000010 cb e4 6d 3d c9 52 21 be aa 65 0f be 5d 52 46 bd
       0.058079522 -0.15754236 -0.14003626 -0.04841839
000020 22 b1 1f 3d 30 92 a4 bd 9d 7b 82 be 89 dd 5b 3d
       0.038987286 -0.080356956 -0.25484934 0.05367807
000030 66 13 19 bd a5 ee 94 3e 72 6a 06 be 9c 36 c1 bd
       -0.037372015 0.2908832 -0.13126543 -0.09434244
000040 96 5b f9 37 08 56 fa bd a2 24 1b 3e 4a 17 21 3e
       2.9725761e-05 -0.122234404 0.15150693 0.1573154
000050 fa 1d 01 3e e7 f8 4b 3d 22 33 e3 39 71 65 93 3e
       0.12609091 0.04979792 0.0004333491 0.2878833
000060 5f 29 dc bc ba 96 05 bc 82 e2 19 3d b8 48 c3 bd
       -0.026875196 -0.008153612 0.03756953 -0.095353544
000070 25 dc 6b be f6 64 69 be 81 32 8e bd 8b 7c f3 bc
       -0.23033197 -0.2279242 -0.069432266 -0.029722473
000080 93 cc f0 bd 40 4d d7 bd a4 ad b1 3c 3a 70 82 3e
       -0.117577694 -0.10512781 0.021689244 0.25476247
000090 f3 d0 d2 3d ab 09 96 bb 52 77 95 3d 41 fc 37 bc
       0.1029376 -0.004578789 0.07298149 -0.011229576
0000a0 3e 7d 31 3c 92 5c ae bd 79 7a 1c be ed 09 34 bd
       0.010833083 -0.0851375 -0.15281095 -0.04395478
0000b0 b1 c2 29 bd 39 82 18 bc 17 53 a4 3e d1 4a ea bd
       -0.041445438 -0.009308391 0.32094643 -0.11440051
0000c0 02 0a 69 be 64 57 18 3c 63 75 e6 bc 81 cc 96 bc
       -0.22757724 0.009298179 -0.028132146 -0.018408062
0000d0 df 1b ad bb 0f ec be 3d 52 67 1b 3c f0 84 99 bc
       -0.0052828635 0.09322368 0.009485083 -0.018740147
0000e0 a5 e3 bf 3d b7 08 cd 3e aa e3 08 3d 22 77 f8 3d
       0.093695916 0.4004571 0.033420242 0.12132098
0000f0 65 4e fd 3d 1b 7b 88 bd 32 f2 2e be b6 19 89 3e
       0.12368468 -0.066641055 -0.17084578 0.26777428

conv3.weight f4 [64, 64, 3, 3]
000000 bf d7 93 bd 93 aa 5c 3c 9e e5 45 3d 4e a3 32 3b
       -0.07218885 0.013468402 0.048314683 0.0027257982
000010 ce 7e 64 bd b8 35 91 3d e3 bd 98 bd 5b 2d 44 bc
       -0.055784993 0.07090324 -0.07458093 -0.011973704
000020 73 54 37 3c 02 a9 8b bc 57 3b 3e 3c 81 58 b3 3c
       0.011189568 -0.017048363 0.011610827 0.021892788
000030 42 12 16 bd 20 00 3f bd bb 3a 80 3c cf 5e 79 bc
       -0.036638506 -0.04663098 0.015653005 -0.015220358
000040 e5 b3 25 3b 00 08 d0 bc 1f 7d 2a bd 90 45 0b 3c
       0.0025284227 -0.02539444 -0.04162323 0.008500472
000050 c0 5c 1c bd 89 f9 e5 bc 96 e6 a7 3c a8 c4 c7 3c
       -0.03817439 -0.02807309 0.020495694 0.024385765
000060 36 08 3e bd 4f 08 97 3b 59 06 40 bc 90 cf 5b bd
       -0.04639455 0.0046091448 -0.011720263 -0.053664744
000070 e5 89 d9 3c 52 9b 39 bc c5 df 33 bd 8b 95 c6 3b
       0.026555011 -0.011328535 -0.043914575 0.0060603074
000080 bf e8 fd bc 2e d5 2d 3c 07 e5 20 bd 5c a0 01 3d
       -0.030994771 0.010609908 -0.039280917 0.03164707
000090 71 c8 e4 3c 15 a3 18 3c f6 75 45 bd 2a c3 b4 3c
       0.02792761 0.009316226 -0.0482082 0.022065718
0000a0 12 ef 4c 3c 20 b1 dc bc a6 57 80 3c dc 27 50 3c
       0.012508171 -0.026939929 0.015666794 0.012704816
0000b0 65 1d 3c 3a 15 56 b5 3c 3f 94 3d bd 79 84 01 bd
       0.0007176011 0.022135774 -0.046283957 -0.031620476
0000c0 c0 55 00 3c 99 b5 fc bc d9 f4 cb 3b d7 ae c6 3c
       0.007832944 -0.030848311 0.0062242565 0.024253292
0000d0 f1 48 09 3c bb 7e 30 ba 55 c7 fe 3b 60 b2 e8 3c
       0.008379207 -0.00067327515 0.007775227 0.028405368
0000e0 4a 6d 5a 3c 08 a9 19 bd cd e8 38 bd 36 51 fc bb
       0.013331721 -0.037514716 -0.04514389 -0.007700111
0000f0 d6 54 33 bd 6d 7c 71 bb 22 b4 18 bd d4 f5 64 b9
       -0.043782078 -0.0036847845 -0.037281163 -0.00021835353
000100 93 43 b9 bb 0b d1 b2 3c 98 5a 5c bc 40 53 41 bc
       -0.0056538074 0.021828195 -0.013449334 -0.0117996335
000110 1c af fc 3c 04 14 2b bc 7c 0c 20 3d 68 44 aa bb
       0.030845217 -0.010441784 0.039074406 -0.005196143
000120 74 71 cf 3c 5e da b4 3c b5 9b 2d 3d c3 e3 85 bd
       0.025322653 0.022076782 0.042384822 -0.06537583
000130 ff 73 87 bd 17 5e 2a bd 6f f2 e8 bb 2d f1 0a 3c
       -0.066139214 -0.041593637 -0.0071089785 0.008480352
000140 e0 2a 15 3d 84 ca 0d bd 7b 43 19 3d e5 d7 ed 3c
       0.036417842 -0.034616962 0.03741787 0.02903361
000150 f8 b1 cf bc 59 70 fc bb 7b 00 f3 3c f0 47 96 3c
       -0.025353417 -0.0077038226 0.029663315 0.01834485
000160 5d bb 1d bd d7 2e 19 3d bc 07 58 bc da 73 d5 3c
       -0.03850876 0.037398186 -0.013185438 0.026056219
000170 ec 53 ba bc 88 3e 4d bd 24 9d 17 bd d9 ee d8 3b
       -0.022745095 -0.050108463 -0.037015095 0.0066202697
000180 6e 52 38 3c ff a9 09 bd 00 c4 0a bd 50 28 c1 b8
       0.0112501215 -0.033609387 -0.033878326 -9.210466e-05
000190 1c 3e f2 bc 06 67 27 3c ed 28 c6 3c d6 6f 01 3c
       -0.029570632 0.010217434 0.024189437 0.007900199
0001a0 e9 2c 14 3d 29 2f 42 bd 4d cb 3e bd 35 69 bd bc
       0.036175642 -0.047408257 -0.0465806 -0.023121456
0001b0 a8 b7 18 bd d7 4e 1d 3d 20 80 0a 3d b6 80 e0 3c
       -0.037284523 0.038405266 0.033813596 0.027405124
0001c0 f9 5b 2a bd bb fb 7f 3b 30 a7 f1 bc 25 58 28 bd
       -0.04159162 0.0039059955 -0.029498667 -0.041099686
0001d0 63 9b e9 bc 8f 99 55 bd bd d4 38 bd 3a 4d b9 bb
       -0.028516477 -0.052148398 -0.045124758 -0.005654958
0001e0 3d 0c 8a 3b 57 00 58 bd 8b 7e ba bc cb 82 7a bc
       0.0042128847 -0.0527347 -0.022765419 -0.015289973
0001f0 5a d7 9a bc d9 a1 4f bd e1 7e fe 3c 7d 46 3f bc
       -0.018901516 -0.05069146 0.03106636 -0.011674521
000200 ec c1 19 3d 47 d1 6a 3c ce 5d ba 3c 04 24 96 3c
       0.037538454 0.014332122 0.022749808 0.01832772
000210 e5 41 82 3c 39 cf c3 bc 0d c6 9e bc 29 37 ac bc
       0.015900562 -0.023902522 -0.019381547 -0.021022396
000220 ab 50 81 bd c1 2d d7 bb db bc 96 bd 1d 30 65 bd
       -0.06314214 -0.0065667336 -0.0736024 -0.055954088
000230 ce b9 99 3b 19 1d 27 bd 78 9a de bc 88 bb 99 3c
       0.004691339 -0.040799234 -0.027173266 0.01876618
000240 16 61 0c bd 55 a1 4e 3c 10 89 1f bd 68 e6 40 bd
       -0.034272276 0.012611707 -0.038949072 -0.047094733
000250 a3 89 36 bd 1b 24 65 3c d7 78 b0 bc 49 68 10 3c
       -0.044564854 0.013985659 -0.021541996 0.008813926
000260 37 c3 b1 bc 55 4d 20 3c 45 c0 72 bc 6c c0 1d bc
       -0.021699531 0.009784062 -0.014816348 -0.0096283965
000270 66 f6 ea bb 77 60 45 3c 9c ad 35 bd bf c7 84 bb
       -0.0071704863 0.012046925 -0.04435502 -0.004052132
000280 e5 b5 26 bd 25 43 da 3b 20 97 96 3c 50 68 b0 3b
       -0.040700812 0.0066608363 0.018382609 0.005383529
000290 8f ce 4c bc 5f 4e 02 bd 71 12 ef bc eb e4 b6 3c
       -0.012500419 -0.03181302 -0.029183598 0.022325953
0002a0 dc 7e e7 bc 32 74 40 3b 65 7a 86 bb 87 40 e5 3c
       -0.028258733 0.0029366133 -0.004103946 0.02798487
0002b0 a6 7b 9e bc d7 53 23 bd b6 03 dc 3c be 60 16 bd
       -0.01934607 -0.039874878 0.026857238 -0.036713354
0002c0 0e c1 c4 3b e6 48 a4 bc ea e7 41 bb de 08 33 bc
       0.006004459 -0.020054292 -0.0029587694 -0.010927407
0002d0 d3 76 e5 bc e3 03 15 3d 28 5c 8f 3c 95 54 e4 3c
       -0.028010761 0.03638066 0.017499998 0.027872363
0002e0 45 bc 5d 3a c1 c7 a3 bc b7 27 fb bc bc 29 be 3c
       0.00084585353 -0.019992711 -0.030658586 0.02321326
0002f0 41 21 a4 bb b9 ae b6 ba 33 9c 29 bb c5 4b 45 bd
       -0.005008847 -0.001393757 -0.0025880456 -0.048167963
000300 6c 14 33 bd 76 a9 09 3c ba 54 b5 bc 23 93 40 3b
       -0.043720648 0.008402219 -0.022135127 0.0029384575
000310 2d 69 eb 3a 69 c3 9a 3c 61 da 17 bd 04 24 a0 bc
       0.0017960422 0.018892007 -0.037073497 -0.019548424
000320 ff e6 45 3c a8 69 15 bd 0e 6c c0 bc 1e 84 0e bb
       0.012079 -0.036477715 -0.023489024 -0.0021746228
000330 eb 32 23 bb 9a c0 e8 3c a4 4f 8f 3c fd c1 83 3a
       -0.0024902176 0.028412152 0.01749403 0.001005232
000340 1a df c0 bc 37 3b 03 3d 44 d1 b2 bc 6d 52 34 bd
       -0.023543883 0.032038894 -0.021828301 -0.04402392
000350 bc 26 81 ba 78 5f e0 bb f4 1d 38 bd 03 78 f4 3b
       -0.0009853463 -0.0068473183 -0.04495044 0.0074605956
000360 83 cb 09 bd 96 ed 93 3c 4c af be bb 95 1c cc 3c
       -0.03364135 0.018057626 -0.005819237 0.024915973
000370 da d4 f1 bc fc ed 56 b9 b8 aa 1e bd 5d 3e b7 bc
       -0.02952044 -0.00020497286 -0.03873703 -0.022368604
000380 36 6c 17 bd 70 09 b3 bc 78 30 83 ba c5 44 00 bd
       -0.036968432 -0.021855086 -0.0010008952 -0.031315584
000390 4f 7d 2e 3d c3 0c a2 bc c0 ca cc 3c 19 a3 04 ba
       0.042599972 -0.019781476 0.024999022 -0.0005059704
0003a0 b5 5b a5 bb 96 ca 2d 3b 00 14 a8 3c 44 4e 99 3b
       -0.0050463327 0.0026518456 0.02051735 0.0046785194
0003b0 70 6b 76 bc 7b a3 6e bd ee dd e1 bc a9 82 28 bd
       -0.0150402635 -0.058261376 -0.027571645 -0.041140232
0003c0 f2 58 f1 bc 29 af 20 bd df ec e2 bc 61 e7 51 bd
       -0.029461358 -0.039229546 -0.02770084 -0.05124605
0003d0 67 4c 84 bc bf 1d c2 bc a4 62 54 bd 15 45 ba b9
       -0.016149713 -0.023695825 -0.051851884 -0.00035528155
0003e0 b1 71 a7 bc c1 aa 89 bd 87 4f 95 3c b0 8f c1 3c
       -0.020439954 -0.06722022 0.018226398 0.023628086
0003f0 94 12 c9 bc a4 f3 e1 bc e8 40 06 bc 44 76 6d bd
       -0.024544992 -0.027581997 -0.008194186 -0.057974115

conv3.bias f4 [64]
000000 16 eb 31 bc d9 f7 32 3e 2d 68 29 bd 40 a9 8f bd
       -0.0108592715 0.17477359 -0.041359115 -0.07014704
000010 06 86 80 bc b0 13 4f bc 48 c0 35 3d a9 f7 97 bc
       -0.015688907 -0.012638971 0.044372827 -0.01855071
000020 ed 1c e5 3d 41 48 48 be 22 99 a0 bd 14 ce 86 3e
       0.11187158 -0.19558813 -0.07841708 0.263291
000030 f1 45 6c 3e 4a 4b 00 bd 61 a0 45 bd 3e 82 02 bd
       0.23073556 -0.0313218 -0.048248652 -0.03186249
000040 f2 be 00 3e dc cd 77 3e f1 fb 83 bd 2e a3 35 3d
       0.1257284 0.24199623 -0.064445384 0.044345073
000050 57 63 92 3d aa 2f 65 bd 90 ae b9 3e ab 8e d8 3b
       0.07147854 -0.05595366 0.36265993 0.006608804
000060 d1 f6 ca 3d dd dd 8e bd 40 59 25 bd f2 b4 09 bc
       0.09910358 -0.06975911 -0.04036832 -0.008404957
000070 dd 70 e1 bc 01 82 7d 3c 02 bb 09 bd cf 69 82 bd
       -0.027519638 0.01547289 -0.03362561 -0.06367838
000080 04 1f 92 3e fa 5b fb 3c 3b 49 19 3e 5b 7b 83 bd
       0.28539288 0.030683506 0.14969341 -0.064200126
000090 20 1a 18 be 3a d9 9c bd 3d ae 69 bd ae 13 5d bd
       -0.14853716 -0.0765862 -0.057050932 -0.053973846
0000a0 13 9c 19 bd ae 49 34 bd 85 6a 0d 3e 1f 5b a1 bd
       -0.03750236 -0.04401558 0.13810165 -0.07878708
0000b0 ef 04 9e bc 65 e2 83 3e f0 da 5c 3e a5 19 dc 3c
       -0.019289462 0.25758663 0.21567893 0.026867697
0000c0 31 e9 3a be 50 41 bf 3e 7b 8e 43 be b4 1c 33 bd
       -0.18253018 0.37354517 -0.1909732 -0.043728545
0000d0 a7 d4 5e 3e cc c1 55 3b 48 84 fc 3b e5 01 8d 3e
       0.21760808 0.0032616733 0.007706199 0.27540508
0000e0 38 23 ea 3e a0 7e 88 bd 41 8c 86 bd 39 35 c3 3c
       0.45729995 -0.06664777 -0.0656972 0.02382909
0000f0 90 77 72 bb 7e ee 83 bd 7f 50 a3 bc 3e f4 86 bc
       -0.0036997534 -0.06441973 -0.019935844 -0.016473886

fc1.weight f4 [64, 1024]
000000 3c 87 4c 3b f6 7f 52 ba 21 5c d3 bc b0 ed d1 3c
       0.0031208536 -0.0008029932 -0.025800766 0.025626034
000010 a5 8c 00 3d ad b6 ad bc 29 ca 1f b9 10 bb 1a 3d
       0.03138413 -0.02120527 -0.00015238732 0.037776053
000020 b4 78 9b 3c 8f 35 7f 3c 51 e0 70 3c b2 2b a5 bc
       0.018978454 0.015576734 0.014701919 -0.020162437
000030 50 70 b6 bb d0 15 c6 3c 84 1e 53 3c c4 c4 9d 3c
       -0.005567588 0.024180323 0.012885693 0.019258864
000040 f7 0f aa bd 56 fc 21 bd c5 9e e2 bd 1c 29 0c be
       -0.08303826 -0.039547287 -0.11065439 -0.13687557
000050 ba 31 d0 3d 36 54 76 be 53 fe b7 be a3 b5 9e 3c
       0.101657346 -0.24055561 -0.3593622 0.01937372
000060 94 fc 38 3e 42 0f bc bc a2 10 00 3c ae 15 8f 3e
       0.18065101 -0.022956494 0.007816466 0.27946228
000070 da 63 e2 3d 37 f5 52 bc 1f e1 cc bc ad be 8c 3e
       0.110542014 -0.012875847 -0.02500969 0.27489224
000080 37 cf 5d bb 07 45 5e 3c 2c 02 a2 3c b2 8c 44 3d
       -0.0033845433 0.013566262 0.019776426 0.04798574
000090 84 43 b6 bb e8 ab 7b 3d df a5 c8 3b 66 4d a4 3c
       -0.0055622477 0.06144324 0.006123289 0.020056438
0000a0 50 20 da 3a b3 e1 ab bc 51 10 99 3c 38 1e b3 bc
       0.001664171 -0.020981645 0.018684538 -0.021864995
0000b0 0d f1 13 bb 41 7e 9e bb 14 33 07 bd a0 32 ab 3b
       -0.0022574097 -0.004836828 -0.033007696 0.005224541
0000c0 47 1b 42 3d 4a cc a1 bd 2a af 99 3c 11 37 7a bd
       0.047389295 -0.07900293 0.018760283 -0.06108767
0000d0 05 1b 16 3e 63 c9 94 bc b3 5f b7 bc c4 4e 80 3d
       0.14658745 -0.018162435 -0.0223845 0.06265023
0000e0 fe 39 90 3d 65 d6 f0 bd 52 b2 1e bb 9d 84 cc bd
       0.07042311 -0.117596425 -0.0024215174 -0.099862315
0000f0 34 af 2f 3e ce 26 66 3e e1 5f 26 3e 03 9b 06 3e
       0.17156678 0.2247574 0.16247512 0.1314507
000100 51 d7 71 be f5 05 16 be 46 71 66 be 8b ff c8 bd
       -0.23617293 -0.1465071 -0.22504148 -0.09814366
000110 e9 83 7a be 93 1e 1c be 38 d2 96 bd 59 84 3f be
       -0.24464382 -0.15246038 -0.07364315 -0.1870283
000120 4d 99 af 3c 28 4a b4 3c 83 6b 7c 3d af d3 93 3d
       0.021435404 0.022008017 0.06162597 0.0721811
000130 9a 6e 01 3e ec d4 23 3e c1 fb c7 3d b9 df ec 3d
       0.12639847 0.15999192 0.09764815 0.11566109
000140 6d 97 b3 bc a8 ba 90 bc 5e 15 43 3c 14 aa 8e bc
       -0.021922791 -0.01766713 0.01190695 -0.017415084
000150 9c 56 f6 3c ec 74 cd 3c a7 f9 63 3c 68 04 43 bc
       0.030070595 0.025080167 0.013914502 -0.011902906
000160 14 b7 6c 3c ea d5 5a bb 13 01 b5 3c 41 74 91 3c
       0.014447946 -0.0033391663 0.022095239 0.01775563
000170 df a2 8a 3c 15 d4 eb 3b ea 5f 06 3b 86 7e 10 3c
       0.016923366 0.007196913 0.0020503947 0.008819228
000180 2f 0e 09 be 0c 36 94 3c bd de da 3c 15 dc d4 3d
       -0.13384317 0.018092178 0.026717538 0.1039354
000190 ca 47 2f bd 76 0c 97 3c 2c aa f0 3d 01 77 ca bc
       -0.042793073 0.018438559 0.11751208 -0.024714949
0001a0 1b 4d d8 3b 6c 9e 4a bd e8 e7 d8 3d e2 15 a2 bb
       0.0066009886 -0.04946749 0.105911076 -0.0049464563
0001b0 41 98 6e 3e 9f 74 2b be 69 d6 82 3e b4 74 e6 3c
       0.23300268 -0.16743706 0.25554207 0.02813182
0001c0 30 3b 12 3d 33 10 99 3c 36 d0 05 3b 4a ad 6b 3c
       0.035700977 0.018684482 0.0020418293 0.014384577
0001d0 66 d4 99 3c 9a d4 c4 3b 99 45 06 3c 99 08 03 3d
       0.018778037 0.0060067894 0.008195304 0.03199062
0001e0 64 ab 12 3d 8b 11 ae bc c6 83 88 bc e3 3e 31 3c
       0.035807982 -0.0212486 -0.016664397 0.010818216
0001f0 86 71 bf bb 39 80 b1 3c d4 d1 c0 bc 61 88 d6 b9
       -0.0058423905 0.021667587 -0.023537554 -0.0004091887
000200 07 90 48 bd dc f0 cb bc 5b 0a 24 3e 62 2f b3 3d
       -0.04896548 -0.024895124 0.16019575 0.08749272
000210 87 50 51 bd 03 2c df bd 50 6c bd 3c 28 39 17 3c
       -0.051102187 -0.108970664 0.023122936 0.009229936
000220 9d f1 07 3e 9c 1d 49 bd a3 b7 76 bd e7 b9 2c bd
       0.13275762 -0.049100503 -0.060233723 -0.042169478
000230 0f b3 83 3c df 92 dd bc ec 78 21 3e 34 a8 08 be
       0.016076593 -0.027047573 0.15768784 -0.13345414
000240 a6 3d 28 bd d3 05 68 bd 4a f8 5f be c5 35 e6 bd
       -0.041074418 -0.05664618 -0.21872059 -0.112407245
000250 d8 b3 0f 3e c0 09 37 3e 64 36 ce 3d 74 3e 5b 3d
       0.14033449 0.17874813 0.10068968 0.053526357
000260 e8 fb d3 3d 53 50 07 3d b2 20 72 3d 7c 4a 68 3e
       0.10350782 0.033035588 0.059113212 0.22684664
000270 da 1e d9 3d ae c8 ba 3d ab 82 17 3e f1 2c 48 3e
       0.106015876 0.09120308 0.1479594 0.19548394
000280 66 d0 48 3d 50 b2 1f bb 90 3e 41 bc 89 5a 1c bd
       0.04902687 -0.0024367757 -0.011794701 -0.03817228
000290 8c ec 57 bc 26 2a d6 bc 44 b4 85 bc a8 4a b4 3b
       -0.013178956 -0.026143145 -0.016321309 0.005502064
0002a0 ea f1 59 bc 10 4e 26 3c dc 62 69 3c 58 ac ad bc
       -0.013302306 0.0101504475 0.014244761 -0.021200344
0002b0 75 5c 55 bd 34 49 8b bc 04 56 13 3c d2 6d bd 3c
       -0.052090127 -0.01700268 0.008992676 0.023123655
0002c0 a8 7b 8b 3e b3 7f 8b 3d 4b 8a 9d 3c 45 fb 81 be
       0.2724278 0.06811466 0.019230982 -0.25387016
0002d0 30 f2 54 bc ef 9c 2c bd 70 d5 2a bd 56 fa 25 be
       -0.012997195 -0.04214185 -0.041707456 -0.16208777
0002e0 9d ff 46 bd c4 69 1d be e0 36 2a 3d e5 aa 47 be
       -0.048583616 -0.15372378 0.04155624 -0.19498785
0002f0 11 80 99 3d 23 01 81 bc a4 0b 6b bc 39 db a2 3c
       0.0749513 -0.015747612 -0.014346037 0.019879924
000300 f3 f0 42 3d c9 d1 17 bc 63 c6 27 be ca 49 6c 3d
       0.04759307 -0.009266325 -0.16384272 0.05768756
000310 fd ac c7 3c 6e de 4c bd 4f 27 08 be 43 3f cc bc
       0.02437448 -0.050016813 -0.13296245 -0.02493251
000320 41 d0 6e bc 83 a2 32 be d9 26 9f be 50 77 4b bd
       -0.014576019 -0.17444806 -0.31084326 -0.049674332
000330 99 07 00 3d 5c 33 89 3d 27 84 47 3e 1d 6e aa 3d
       0.031257246 0.06699249 0.19484006 0.08321784
000340 f6 aa 31 3e f5 86 99 bc 90 01 19 bd 76 15 ca bb
       0.17350373 -0.01874111 -0.037355006 -0.006167109
000350 e4 59 43 3d 7e e1 1d 3d 07 18 89 bd 1a 36 91 3d
       0.04769315 0.038545124 -0.06694036 0.07090397
000360 96 f3 ac bd 8e d3 88 3c c0 09 94 bd bc 6a c0 3d
       -0.08444898 0.01670244 -0.07228422 0.09395358
000370 f9 df e8 bd 23 f5 e9 3d 68 c9 b3 3c f4 12 3d 3e
       -0.113708444 0.11423709 0.021946624 0.18464261
000380 3f e9 08 3d fe 8e 15 3c d4 d1 8f bc e3 61 91 bb
       0.033425566 0.00912833 -0.017556109 -0.004436718
000390 a0 56 1b 3d c9 7b e4 bb 78 e5 e9 3b ac 70 dd bc
       0.03792441 -0.006972764 0.0071379505 -0.027031265
0003a0 bd f7 ae 3c e6 07 10 3d a8 04 c2 3c 95 50 5b bb
       0.021358365 0.035163783 0.02368386 -0.0033464779
0003b0 79 55 06 bb 54 e0 7e 39 65 79 f3 bc 3b 67 0c bd
       -0.0020497723 0.00024306896 -0.029720971 -0.034278136
0003c0 ff 3f f5 bc 78 f3 95 bc 1b 58 77 3c f1 8d 99 bc
       -0.029937742 -0.018304572 0.01509669 -0.01874444
0003d0 ed 39 e5 3c 80 56 11 3c 12 89 d8 3c 3c b0 dc bb
       0.027981723 0.008870721 0.026432548 -0.006734876
0003e0 25 17 d1 3c 5f ba 31 ba 7f 92 82 3c 5b ce 12 3d
       0.025523731 -0.00067797856 0.015938995 0.035841327
0003f0 79 2f 75 3c 69 07 cf 3c 40 a9 bd 3b 67 2a 0a 3d
       0.014964932 0.025272088 0.0057879984 0.033731844

fc1.bias f4 [64]
000000 1d 62 95 3c e0 f9 47 bd 33 15 aa 3e f2 1c 0a 3d
       0.01823526 -0.048822284 0.332193 0.03371901
000010 ea 22 27 3e 31 93 1c 3e 53 81 34 bd 6c 0a 61 3e
       0.16321912 0.15290524 -0.044068646 0.21976632
000020 01 5b 84 3c 55 b4 a1 bc d5 1a 2f bd ce 9f 9b bd
       0.016156675 -0.01973931 -0.0427502 -0.0759884
000030 5e a0 a7 bd 9d bc c2 3d c9 f5 ea 3d ff ac 6f bd
       -0.081848845 0.095086314 0.11472661 -0.05851459
000040 c6 03 68 3d e5 3c 8f bc 01 87 65 bb 5b 8e 0a 3d
       0.056644224 -0.017485091 -0.0035023096 0.033827167
000050 6a 5c 81 3d a2 f1 f4 bd 59 dc 5a 3d e1 16 45 3e
       0.06316455 -0.1196015 0.053432796 0.19247009
000060 13 47 fd 3d bf 05 85 3e 23 5c 49 3e 59 61 0a 3e
       0.12367072 0.25980946 0.19664054 0.13513698
000070 28 e5 5d 3e 95 62 88 bc fa bf 80 3c bd 64 4a 3e
       0.21669447 -0.01664857 0.015716542 0.19764991
000080 03 e4 6a bd f1 1c 7e 3d 42 1e ba 3c 24 08 8f 3e
       -0.057346355 0.06203932 0.022719506 0.27935898
000090 dc 70 1d 3c f5 2e ce bc 23 bd d2 3d fe 31 0c bc
       0.009609427 -0.025168875 0.10289981 -0.008556841
0000a0 4b 92 8a bc 9f 01 c7 bc 9c 33 2b 3e 9c 96 c1 bb
       -0.016915461 -0.024292765 0.16718906 -0.0059078466
0000b0 cd 81 fc bc fd 7d 05 be 55 0d 7f bd a3 93 b5 3d
       -0.030823613 -0.13036342 -0.062268574 0.0886605
0000c0 c2 ee 22 3e e1 8a 37 bd 5e 37 fe bd af bd 5a bb
       0.15911391 -0.04481018 -0.12412904 -0.003337722
0000d0 41 00 76 3d 43 f8 bf 3d 0d 19 10 3e e9 f9 97 bd
       0.060058836 0.09373524 0.14072056 -0.074207135
0000e0 2d b1 ce 3d 0e 07 2c 3e 5a d1 2b 3e 53 2e 23 3d
       0.10092387 0.16799566 0.1677908 0.0398391
0000f0 2a 06 2a 3e 81 72 c8 b9 be 13 0e bd b5 58 32 3d
       0.16603914 -0.00038232285 -0.034686796 0.04354163

fc2.weight f4 [10, 64]
000000 4e 9f 7b 3d 27 85 b0 bd 36 aa 17 3d ac d5 5c 3d
       0.06143122 -0.08619147 0.03702756 0.05391471
000010 02 10 c2 be ca 95 16 be 8b 35 38 3d cd 7f a3 3d
       -0.37902838 -0.14705577 0.044972938 0.079833604
000020 54 73 51 bd 16 04 b4 3d 08 58 53 3d c3 d0 82 bd
       -0.051135376 0.08789842 0.051597625 -0.063874744
000030 8f a4 e1 3d 75 8d 55 be 55 c0 30 3e fc 9e 3e 3e
       0.11017715 -0.20854743 0.17260869 0.18615335
000040 84 84 41 be 9d f9 e4 bd d9 6d 04 3d f1 72 73 3e
       -0.18898207 -0.111804225 0.03233132 0.23774315
000050 12 b0 50 3e 4b 1f 07 3d 49 82 18 3e 5c 5d c5 bd
       0.20379665 0.032988828 0.1489345 -0.096369475
000060 39 9c 2e 3d ea b6 03 3e cb cd 09 be b8 c0 1a be
       0.042629454 0.12862745 -0.1345741 -0.15112579
000070 bc 39 4b be 79 87 a9 3d ea 41 aa 3c 66 1b 85 be
       -0.19846243 0.082777925 0.020783383 -0.25997466
000080 d8 46 df 3b 41 e7 0b 3d e0 af ef bd c1 1f de bd
       0.006813865 0.034156088 -0.11703467 -0.108459
000090 83 c9 04 bd 66 57 76 3d e5 c2 e1 bd 28 3c 42 bd
       -0.03241874 0.060141943 -0.11023501 -0.04742065
0000a0 96 36 6b bd 3b 7b 77 3d ce 60 99 bb 27 b6 c9 3d
       -0.057425104 0.060420256 -0.0046807295 0.09849196
0000b0 86 99 4a bd e7 a4 e7 3d f2 f6 dd 3d 57 92 c6 3e
       -0.049462818 0.113107495 0.10838117 0.38783523
0000c0 4b 0b af be 9c 10 9a bc 4f 01 59 3d fa ad 06 be
       -0.34188303 -0.018806748 0.052979764 -0.13152304
0000d0 13 53 25 3d 89 8f 4a be 99 ba c4 bd b5 dc 9b 3d
       0.04036243 -0.19781317 -0.09605903 0.07610456
0000e0 89 7d 8f be ed 6d 03 3e a7 af e8 3c 46 8c 89 3d
       -0.28025463 0.12834902 0.02840407 0.06716208
0000f0 8d 8f 25 be d3 5c db bd 80 21 19 3c 9b 46 1c be
       -0.16168042 -0.10711064 0.009346366 -0.15261309
000100 97 40 88 3e d9 35 83 bd a7 78 98 be b2 68 04 3e
       0.26611778 -0.06406755 -0.2977955 0.12930563
000110 45 e4 a6 bb 67 c8 f3 bc 0e 00 35 3d 5d 76 c1 be
       -0.00509313 -0.029758645 0.044189505 -0.37785617
000120 f4 99 46 bd d3 e2 52 bd 64 b7 58 3d 4c ce 26 bd
       -0.048486665 -0.051485848 0.05290927 -0.040724084
000130 cc d7 fd 3d 52 95 2e 3e 11 fb 9a 3c e8 4f 57 3d
       0.123946756 0.17049149 0.018918546 0.05256644
000140 5d 8d 8d be 27 7a bf bd 25 44 6c bd f8 90 31 be
       -0.27646914 -0.093494706 -0.057682175 -0.17340457
000150 21 7c 5e 3d 76 a8 1a 3e 84 ad b7 be c9 2e 11 be
       0.054317597 0.15103325 -0.3587457 -0.14178003
000160 92 9c 26 3e f6 6b 3d be 57 31 9b bd b1 c6 84 bd
       0.16270664 -0.18498215 -0.0757777 -0.0648321
000170 c5 41 88 be 68 89 e0 bd e4 bd a4 bd 86 d4 0f 3c
       -0.26612678 -0.10963708 -0.08044031 0.008778697
000180 5d c3 c2 3d 12 9e 51 be 13 33 a7 bd d4 d8 21 3e
       0.09509919 -0.20470455 -0.081640385 0.1580537
000190 6c cc 96 bd e2 fd 34 bd 59 27 ca 3d 1d 8f ec 3d
       -0.07363209 -0.044187434 0.09870786 0.11550734
0001a0 a5 6e d3 bd ed 8e b1 3d 2c 30 6f be ac 8f 9c 3d
       -0.10323838 0.08669839 -0.2335822 0.07644591
0001b0 80 09 c5 bd df 32 89 3e 5e 38 05 be f2 85 54 bd
       -0.096209526 0.26796624 -0.13009784 -0.051885553
0001c0 5e 3e 5a 3e 4b bb 38 3d e0 77 c1 3d cf 1f 0c 3e
       0.21312854 0.04510049 0.094466925 0.13684009
0001d0 03 64 28 3d bd 9f 6f 3e 5f 13 84 be 2f a5 90 3d
       0.041111004 0.23400779 -0.2579603 0.07062756
0001e0 82 14 81 be e1 fc 86 bd 4d e0 a5 3c 65 2f 94 3c
       -0.2521096 -0.065912016 0.020248557 0.018089006
0001f0 d3 7a 7b 3e 43 d8 23 3d 62 6a f7 bd 69 16 33 be
       0.24558572 0.040001165 -0.12080838 -0.17489018
000200 76 44 53 be 12 f3 80 bc ad 1f 75 be 89 0a a9 3d
       -0.20631585 -0.015740905 -0.23937865 0.082539625
000210 81 d1 99 bd ae 8b 6c 3e 20 51 98 bc b1 b6 39 3d
       -0.07510663 0.23100159 -0.01859337 0.045340244
000220 d0 99 ee 3d b6 92 f0 bc 6d 57 45 bd 55 37 12 bc
       0.11650431 -0.029366832 -0.04817908 -0.008924325
000230 74 9a de 3c 99 3c 05 3e ff 08 42 bd 82 72 77 bd
       0.027173258 0.13011397 -0.04737186 -0.060411938
000240 ae 3e 82 be 7a 3e 2d 3b 98 aa fc bd 26 c9 a6 3d
       -0.25438446 0.0026434944 -0.12337226 0.08143835
000250 1a a4 fa 3d 0d d1 1a be 2d e1 c3 3d 73 b6 a9 be
       0.12238331 -0.15118809 0.09564433 -0.3314701
000260 25 71 60 bd 6f 9d eb bd 53 2b 4a 3e d6 9b 93 3d
       -0.054795403 -0.115046374 0.1974309 0.07207458
000270 dd 07 c8 3d 52 d6 cc 3d 59 ff f9 3c df 2c 4d be
       0.09767125 0.10001816 0.030517267 -0.20036648
000280 27 e1 d2 3d a5 bd 0d bd ba 18 a1 bd 53 fd 5e 3d
       0.10296851 -0.034604687 -0.07866044 0.054440808
000290 f5 75 d4 bd 55 18 03 bd c7 20 23 3d 16 b3 cf 3d
       -0.10374061 -0.032005627 0.03982618 0.1014158
0002a0 22 9a 62 bd a3 3b a1 3d 69 96 e4 bd 53 2e bd 3d
       -0.055322774 0.07872703 -0.11161501 0.09237351
0002b0 8b f5 49 bd 74 2c 64 3d 34 64 91 bd f6 31 57 bd
       -0.049306434 0.055706456 -0.0709919 -0.05253788
0002c0 9b be 30 be 5c 0c 49 bc 82 9d 55 3e 87 01 91 be
       -0.1726021 -0.012271013 0.20860866 -0.28321478
0002d0 66 29 2a be 09 32 cd bc c0 8d 48 be 53 2a 7b bb
       -0.16617355 -0.025048273 -0.19585323 -0.0038324788
0002e0 de 30 2b 3e 54 69 0e 3e 6c 87 4f 3e 02 e1 bf 3d
       0.1671786 0.13907367 0.20266503 0.09369089
0002f0 5a 41 6c be 73 06 fe bc 23 75 e1 3c 32 21 49 3e
       -0.23071805 -0.031008935 0.027521675 0.1964157
000300 44 e3 12 be 67 b7 db 3d 1a 9f 7a 39 8e e0 c9 3d
       -0.14344507 0.107283406 0.00023901128 0.098572835
000310 37 16 08 3e f8 fd 28 be 6e de 51 3d 78 b0 bc 3d
       0.13289724 -0.16503131 0.051237516 0.09213346
000320 02 07 14 bd 84 3c 4b 3d a9 17 a6 bc 41 7d 91 bd
       -0.036139496 0.04961826 -0.020274954 -0.071039684
000330 31 71 f4 3c 1a 59 5b be 6c 2c 32 3e 45 fb 14 be
       0.02983913 -0.21420708 0.17399758 -0.14548977
000340 06 94 32 be d6 4c bc 3d ec 4b a0 bd 22 3b 24 be
       -0.17439279 0.09194343 -0.07826981 -0.16038182
000350 95 9b 92 bc c8 50 bc 3c 7c cc 7f 3d 8f b5 da bd
       -0.017896453 0.022987738 0.06245087 -0.10679161
000360 07 f3 63 be df 5d 8c be 5f 2c 9e bd 99 44 c6 3c
       -0.22260676 -0.27415368 -0.07723307 0.024202632
000370 4c e5 15 3e bf a4 78 bd cf 42 68 bd 42 2b 16 3d
       0.14638251 -0.06070399 -0.05670434 0.036662348
000380 7a 1c 28 bd b3 49 ae bd b8 16 0b bd a0 7d 01 3e
       -0.041042782 -0.08510151 -0.033957213 0.12645578
000390 d8 59 fe bd a7 3e 42 bd 3a 79 0d 3e 7b 40 1f 3d
       -0.1241948 -0.04742303 0.13815776 0.038879853
0003a0 40 14 b6 bd 58 c7 d7 bc 87 a0 90 3d b3 21 b7 bd
       -0.08890581 -0.026340172 0.07061868 -0.089419745
0003b0 e9 96 81 3d df 12 14 3d bf 91 df b8 1d 51 5c bd
       0.06327612 0.03615081 -0.00010660616 -0.053788293
0003c0 bd ec 29 bc 33 cf 9d bd 32 16 b7 3d 1d 16 70 be
       -0.010371384 -0.07705536 0.0893978 -0.23445936
0003d0 e4 e7 1f be 89 ae 03 be 58 4d 38 3e 91 9a 07 bd
       -0.15615803 -0.12859549 0.17998254 -0.03310639
0003e0 20 3e 8e 3b 8b e0 79 bd c0 6e 2f be 53 16 c6 bd
       0.004340902 -0.061005156 -0.17132092 -0.09672227
0003f0 c6 05 2f 3e 1d 2c a1 3d 4e 91 98 3d f8 70 08 be
       0.17092046 0.07869742 0.0744959 -0.13324344

fc2.bias f4 [10]
000000 a5 68 00 bc 58 d6 5e be fa d6 aa bd 88 af 32 3d
       -0.007837449 -0.21761453 -0.08341785 0.04362443
000010 fe a3 48 3e 7a 98 b8 3d bd a9 fa 3d cb 9b ad bd
       0.19593808 0.090134576 0.12239406 -0.08476981
000020 06 59 57 3d b4 e1 5a bd
       0.052575134 -0.053437904
