jenny.pth (torch, 493733 bytes, 10 tensors)

conv1.weight f4 [32, 3, 3, 3]
0	0xbdeba2f4	-0.1150569
1	0x3e26ef1a	0.16302148
2	0x3c88cb2f	0.016698448
3	0x3e5df1bd	0.21674247
4	0x3eb9fb2e	0.36324447
5	0xbe81edab	-0.2537664
6	0x3d4054b4	0.04695578
7	0xbe679d6a	-0.22618642
8	0xbe82ecf5	-0.2557141
9	0xbea5a29e	-0.3235063
10	0xbaab0d8b	-0.0013050301
11	0x3e551f07	0.20812617
12	0x3e2f1564	0.17098004
13	0x3ec2bb55	0.38033548
14	0xbc54d585	-0.01299036
15	0x3c05c977	0.008165709
16	0xbddd935d	-0.10819123
17	0xbe33b1dd	-0.17548318
18	0xbe9deb42	-0.3084355
19	0x3cf71401	0.030160906
20	0x3d925a55	0.07146136
21	0x3ddcb9a7	0.10777598
22	0x3e7a75f4	0.24459058
23	0x3cbe7694	0.023249902
24	0xbd9034d2	-0.07041325
25	0xbd8a8a58	-0.06764668
26	0xbd2792a3	-0.040911328
27	0xbe8ab3ef	-0.27090403
28	0xbe5589f7	-0.2085341
29	0x3eec785f	0.46185586
30	0x3e51793f	0.20456408
31	0xbd850516	-0.06495111
32	0xbe0530b3	-0.13006859
33	0x3e8f8d25	0.28037372
34	0xbb66fc9c	-0.0035245782
35	0xbe5f4670	-0.21804214
36	0xbe62014e	-0.2207081
37	0xbe595448	-0.21223557
38	0x3eabc063	0.33545217
39	0x3e197dad	0.14989348
40	0x3dfb836b	0.12280925
41	0xbe13d77b	-0.14437668
42	0xbd16a9a4	-0.036782876
43	0x3ca54d86	0.020178568
44	0xbe14deb0	-0.14538074
45	0xbe4f83c4	-0.20265108
46	0x3c4ac124	0.01237515
47	0x3ea81082	0.32825094
48	0xbd94c0c9	-0.07263333
49	0x3ddd3902	0.10801889
50	0xbe2210a8	-0.15826666
51	0x3e2365d3	0.15956812
52	0x3e5d4ade	0.21610591
53	0xbe8ed59f	-0.27897355
54	0x3e0e734d	0.13911171
55	0x3cbaf1e1	0.022820415
56	0xbd9b06f0	-0.075696826
57	0xbd7ded2a	-0.061993755
58	0x3e002940	0.12515736
59	0x3eb251b9	0.34827974
60	0xbdbf1918	-0.09330958
61	0xbe2fff2c	-0.17187184
62	0xbe1d4289	-0.15357412
63	0xbdaaed34	-0.08346024
64	0x3e82d9fd	0.25556937
65	0xbe505360	-0.20344305
66	0x3d4b13f1	0.049579564
67	0x3da86cc0	0.082238674
68	0x3ecc3c30	0.3988967
69	0x3d9dd321	0.07706285
70	0xbec0eb8c	-0.37679708
71	0xbe7b8dde	-0.24565837
72	0x3b4520a1	0.0030079263
73	0x3cea5647	0.028605593
74	0x3cc35b8b	0.023847362
75	0xbd376921	-0.044777993
76	0x3da98c13	0.0827867
77	0x3ec7713b	0.38953575
78	0xbdde9154	-0.10867563
79	0xbd2b6f8e	-0.041854434
80	0xbe8ada09	-0.27119473
81	0xbe741ce9	-0.23839153
82	0xbcbde73a	-0.023181546
83	0xbe6dbef5	-0.23217376
84	0xbe7e4863	-0.24832301
85	0x3da6ce42	0.08144809
86	0x3e04a478	0.12953365
87	0x3cbf89c8	0.023381129
88	0x3dabaf3a	0.08383031
89	0x3d8d832e	0.06909786
90	0x3d255a4b	0.040369313
91	0x3c092379	0.008370274
92	0x3dd71f27	0.10503989
93	0x3d4801bd	0.048829783
94	0xbb9b990b	-0.0047484688
95	0x3e180015	0.14843781
96	0x3cf204f3	0.029543376
97	0x3a16786a	0.0005739989
98	0xbd716a59	-0.05893931
99	0x3d7ac276	0.06122061
100	0x3e31bf39	0.17358102
101	0x3e220ee6	0.15825996
102	0x3e5335d4	0.20626003
103	0x3da4ef03	0.080534
104	0x3e5118ac	0.20419568
105	0xbaa2c4d8	-0.0012418283
106	0xbc5ceb02	-0.013483765
107	0x3e59af0d	0.21258183
108	0xbdf9a60d	-0.12189875
109	0xbdfa022b	-0.12207445
110	0xbd63d5d6	-0.05562385
111	0x3dfbab2b	0.12288507
112	0x3e041ac1	0.12900831
113	0xbe2c4d9d	-0.16826482
114	0xbd8be8b5	-0.06831495
115	0x3e68fd4a	0.22752872
116	0xbd72b86e	-0.059257917
117	0xbbdc833d	-0.006729512
118	0xbd4d46f7	-0.050116505
119	0x3b806824	0.0039186645
120	0xbd082e63	-0.033247363
121	0x3e4503e9	0.19239773
122	0xbdf91456	-0.12162082
123	0xbe1c0647	-0.1523677
124	0xbcd50e8e	-0.026007917
125	0x3db5976b	0.08866771
126	0x3e6333ef	0.2218778
127	0x3d9a5914	0.075365216
128	0xbd2bb3d0	-0.04191953
129	0x3db539d9	0.08848924
130	0xbba8e27d	-0.0051539526
131	0x3dabd8a7	0.083909325
132	0xbbea6a17	-0.00715376
133	0xb9a9a9e2	-0.00032360764
134	0x3d127194	0.035752848
135	0x3eb0c167	0.34522554
136	0x3d449c0c	0.04800038
137	0x3ea30d1a	0.31845933
138	0xbe2e9f55	-0.17052968
139	0x3dbacdc5	0.09121279
140	0xbe37e1db	-0.17957251
141	0xbe189685	-0.14901169
142	0xbdff61af	-0.124698035
143	0xbd8a1575	-0.06742374
144	0x3dba7221	0.091037996
145	0x3e81cb41	0.25350383
146	0x3e2c7794	0.1684249
147	0x3aacc380	0.0013180822
148	0xbea105a7	-0.31449625
149	0xbec1db00	-0.37862396
150	0x3dab8090	0.08374131
151	0xbd710419	-0.0588418
152	0x3d89efdf	0.06735205
153	0x3e940585	0.2891046
154	0x3d887b7f	0.0666418
155	0x3dc4a589	0.09601886
156	0x3d2de5a6	0.042455338
157	0xbd2973ea	-0.04137031
158	0xbe5a49c0	-0.21317196
159	0xbe51b44f	-0.20478939
160	0xbdf7f7f2	-0.12107839
161	0x3e196563	0.14980082
162	0x3d4fc0d3	0.050721
163	0x3e3d6f0c	0.18499392
164	0x3e459133	0.1929367
165	0x3daf32eb	0.08554634
166	0x3e970b59	0.29500845
167	0x3e0e4b21	0.13895847
168	0xbd5db14f	-0.054124173
169	0xbd2d08b7	-0.04224464
170	0x3e1671c1	0.14691831
171	0xbeadbeef	-0.33934733
172	0xbeb1f4b5	-0.3475701
173	0xbe51bcb1	-0.20482136
174	0xbe9f5b62	-0.31124407
175	0xbe014034	-0.12622148
176	0xbe66dcf3	-0.22545223
177	0xbd741fce	-0.059600644
178	0xbe0b73db	-0.13618414
179	0xbd271890	-0.04079491
180	0x3e8d903d	0.27649108
181	0x3e43f5e7	0.19136773
182	0x3cf866ff	0.03032255
183	0x3e600433	0.21876602
184	0xbe1bdf15	-0.15221818
185	0x3dff7403	0.12473299
186	0x3dbd907e	0.09256075
187	0x3e88a597	0.26688835
188	0xbe0c6992	-0.13712147
189	0x3d0e4604	0.03473474
190	0xbe21b55e	-0.15791842
191	0xbddef181	-0.10885907
192	0x3eb029e4	0.3440696
193	0xbd9d781a	-0.07688923
194	0xbe8c3302	-0.27382666
195	0x3e908d30	0.28232718
196	0x3e18c849	0.14920153
197	0x3db49306	0.08817105
198	0x3ccb75f2	0.024836514
199	0xbe8b227c	-0.27174747
200	0x3d84b661	0.064800985
201	0x3e28089f	0.16409539
202	0xbe974349	-0.29543522
203	0xbd93fbdf	-0.07225775
204	0xbd5bb917	-0.053643312
205	0x3e3c4ee5	0.18389471
206	0xbe823073	-0.2542759
207	0xbdb6a358	-0.08917874
208	0xbdb100ac	-0.08642706
209	0xbe14f683	-0.14547162
210	0x3e9901f4	0.29884303
211	0x3d971da6	0.07378702
212	0xbe6ee12c	-0.23328084
213	0x3e0e2fdf	0.13885449
214	0x3e25c27b	0.1618747
215	0xbdd915bf	-0.10599851
216	0x3de19bcf	0.11016046
217	0xbe8a08a8	-0.2695973
218	0x3d9a5567	0.075358205
219	0x3e7a9c9d	0.24473806
220	0xbed4ef2f	-0.41588733
221	0x3e7b7581	0.24556543
222	0x3e719714	0.23592788
223	0xbed3926e	-0.41322654
224	0x3e53550c	0.20637912
225	0x3e2a47b8	0.16628921
226	0xbea040b0	-0.31299353
227	0x3e491617	0.19637333
228	0x3e04e673	0.12978534
229	0xbece6179	-0.4030874
230	0x3e136c08	0.1439668
231	0xbce21e5e	-0.02760237
232	0xbe1f8ee8	-0.15581858
233	0x3e657394	0.22407371
234	0x3dd10020	0.10205102
235	0xbe8512b3	-0.2599083
236	0x3d8ec2ce	0.0697075
237	0x3e4004d0	0.18751836
238	0xbe198814	-0.14993316
239	0x3e6c90cb	0.23102109
240	0x3e0bd1f4	0.1365431
241	0xbe97205e	-0.29516882
242	0xbcd83af0	-0.026395291
243	0xbd42d758	-0.04756865
244	0xbe20205a	-0.15637341
245	0x3e072783	0.13198666
246	0xbe09b018	-0.1344608
247	0x3d14b1a0	0.03630221
248	0x39aea462	0.0003331034
249	0xbd5416a3	-0.0517794
250	0x3e91f069	0.2850373
251	0xbdaa4e3d	-0.08315704
252	0x3d92c8f4	0.07167235
253	0xbea3bffa	-0.31982404
254	0xbde1b9a3	-0.110217355
255	0xbe4b5a7c	-0.19858736

conv1.bias f4 [32]
0	0xbd5f1060	-0.054458976
1	0xbd847262	-0.06467129
2	0xbd831fc7	-0.064025454
3	0xbea4522a	-0.32093936
4	0x3d88c095	0.06677357
5	0xbdc71ea1	-0.09722639
6	0xbdd60933	-0.10450973
7	0xbe004fe7	-0.1253048
8	0xbd217109	-0.03941444
9	0x3d1285e9	0.035772238
10	0xbd30286d	-0.043007303
11	0x3d97a668	0.07404786
12	0x3c41aa67	0.011820412
13	0x3c3c48ac	0.011491936
14	0xbdc667f9	-0.096878
15	0xbd201385	-0.039081115
16	0xbe9916b6	-0.2990014
17	0xbdc8303b	-0.09774824
18	0xbd3b0d06	-0.045666717
19	0xbe0e6ffe	-0.13909909
20	0xbe9317a3	-0.2872897
21	0xbd181968	-0.037133604
22	0xbe52be03	-0.20580296
23	0xbec7df6f	-0.39037654
24	0xbdec7abb	-0.115468465
25	0xbe167d09	-0.14696135
26	0xbeabd9b8	-0.33564544
27	0x3ce1ba81	0.027554752
28	0xbd56f30e	-0.05247789
29	0xbe3d3288	-0.18476307
30	0xbd93947b	-0.07206055
31	0xbe169a57	-0.14707313

conv2.weight f4 [64, 32, 3, 3]
0	0x3cc4ddb5	0.0240315
1	0xbc608c04	-0.013705257
2	0x3d01477c	0.031562313
3	0xbd59df19	-0.053191278
4	0x3d7e2714	0.062048987
5	0x3d308818	0.04309854
6	0x3cbe0604	0.023196228
7	0xbcfc47dd	-0.030795986
8	0xbe4b202d	-0.19836493
9	0xbe8c405b	-0.2739285
10	0xbda64a24	-0.0811961
11	0x3e345d58	0.17613733
12	0xbf12bb5c	-0.5731714
13	0xbf002b20	-0.50065804
14	0xbe202364	-0.156385
15	0xbefcecf0	-0.4939952
16	0xbef984b0	-0.48734045
17	0xbf1f0d62	-0.62129796
18	0x3d7b1aed	0.061304975
19	0x3db85e47	0.09002357
20	0x3e20ce7d	0.15703769
21	0x3d426e06	0.047468208
22	0x3cfe42eb	0.031037768
23	0x3d83eb7c	0.064413995
24	0xbde4722b	-0.11154588
25	0xbe8485e1	-0.25883391
26	0xbe1bd99e	-0.15219733
27	0xbd68d955	-0.05684789
28	0xbd4c313b	-0.049851637
29	0x3c663ac0	0.014052093
30	0xbe3633f6	-0.17793259
31	0xbdc9ad08	-0.09847456
32	0xbe241875	-0.16024955
33	0xbd63b7d7	-0.055595245
34	0xbe121f2a	-0.142697
35	0xbc8afdeb	-0.01696678
36	0x3d8ae070	0.06781089
37	0x3d5b715b	0.0535749
38	0x3d8d246b	0.06891712
39	0x3d61e8bc	0.055153593
40	0x3bb178fd	0.0054160343
41	0x3d83b375	0.06430713
42	0x3debc06d	0.11511312
43	0x3d690bac	0.056895897
44	0x3ddc890c	0.10768327
45	0x3e366f7f	0.1781597
46	0x3cb0075b	0.021487882
47	0x3d1cf3d1	0.03831846
48	0x3dfd3ab4	0.12364712
49	0x3b04cadc	0.0020262515
50	0x3da0d675	0.078534044
51	0xbe27913b	-0.16363995
52	0xbe287c2c	-0.16453618
53	0xbdf247f4	-0.1183013
54	0xbeb4872b	-0.35259375
55	0xbe4fb42a	-0.20283571
56	0xbe82f25a	-0.25575525
57	0xbe7491b4	-0.23883706
58	0xbe1c4745	-0.15261562
59	0xbe59526d	-0.21222849
60	0xbe3fa391	-0.1871474
61	0xbdef75a5	-0.11692361
62	0xbe5c9ec2	-0.21544936
63	0xbea43330	-0.32070303
64	0xbe44de9f	-0.19225548
65	0xbe783a7e	-0.24241063
66	0xbdcdc9ef	-0.100482814
67	0xbe2c7753	-0.16842394
68	0x3d17ea9a	0.037088968
69	0x3d84a9e7	0.06477719
70	0xbe12d681	-0.14339639
71	0xbd508411	-0.0509072
72	0x3e85c9eb	0.26130614
73	0xbe132ae0	-0.14371824
74	0x3d9c577a	0.07633872
75	0xbdbe8ed0	-0.09304583
76	0xbe8300d2	-0.25586563
77	0xbc5b0085	-0.013366823
78	0xbd3acd05	-0.045605678
79	0xbcd43e82	-0.025908712
80	0x3e23b5a5	0.1598726
81	0xbe88745b	-0.26651272
82	0xbd9b8324	-0.075933725
83	0xbb9fcc31	-0.0048766364
84	0x3e13b704	0.14425284
85	0x3d8d5f20	0.06902909
86	0xbc82eeb4	-0.015982963
87	0x3d694cb1	0.056957904
88	0x3dd5b512	0.10434927
89	0x3de8afea	0.11361678
90	0xbea56434	-0.3230301
91	0xbf0cce13	-0.55001944
92	0xbeafc443	-0.34329423
93	0xbf36d29e	-0.71415126
94	0xbf3ba1fa	-0.7329403
95	0xbf076593	-0.52889365
96	0xbec6f109	-0.3885577
97	0xbeab9b19	-0.33516768
98	0xbf1a53cb	-0.6028411
99	0x3da98d45	0.08278898
100	0x3d63d550	0.055623353
101	0x3e0b47c6	0.13601598
102	0x3ca06814	0.019580878
103	0x3d4d9ab4	0.050196365
104	0x3d6120c8	0.054962903
105	0x3cc35ee9	0.023848968
106	0x3d2e377d	0.042533386
107	0x3d0bef0b	0.034163516
108	0x3cd91992	0.02650145
109	0xbdd014a3	-0.10160186
110	0xbcda4259	-0.026642965
111	0x3cc919b3	0.024548387
112	0xbd90a510	-0.07062733
113	0x3d1963f2	0.03744883
114	0x3dfccd53	0.1234385
115	0x3d8c4585	0.06849197
116	0x3d57f9bc	0.0527284
117	0x3d1c5776	0.038169347
118	0xbca2fcfe	-0.019896027
119	0x3db925c4	0.09040406
120	0x3dad4d49	0.084620066
121	0x3d37d0e7	0.04487696
122	0x3c6e960f	0.014562144
123	0x3dd79666	0.10526733
124	0x3d248810	0.04016882
125	0x3dc60c78	0.09670347
126	0xbe04a93d	-0.12955184
127	0xbe8bd11c	-0.27307975
128	0xbdae9155	-0.08523814
129	0xbe7b4f41	-0.24541952
130	0xbe750645	-0.23928173
131	0xbe32f8d2	-0.1747773
132	0xbeb315ea	-0.34977657
133	0xbe3d961f	-0.18514298
134	0x3c97aee2	0.018516008
135	0xbea33fc0	-0.31884575
136	0xbdc9c183	-0.098513626
137	0x3d3d07fc	0.046150193
138	0xbe598bdf	-0.21244763
139	0xbe1a8151	-0.15088393
140	0xbe771dc7	-0.24132453
141	0xbed0446c	-0.40677202
142	0xbe83087d	-0.25592414
143	0x3d9677d5	0.07347075
144	0xbdbcc75c	-0.09217712
145	0xbe21267d	-0.15737338
146	0xbdd33c7d	-0.103142716
147	0x3d9e7093	0.077363156
148	0x3c11e48a	0.008904586
149	0xbdabee89	-0.08395106
150	0x3e2b38e3	0.1672092
151	0x3da8723e	0.08224915
152	0x3df59cd6	0.11992805
153	0xbe38b5fb	-0.1803817
154	0xbe019521	-0.12654544
155	0xbd6a04d9	-0.05713353
156	0x3e2e8104	0.17041403
157	0x3e56c737	0.20974432
158	0x3e1a5686	0.15072069
159	0x3e669673	0.2251833
160	0x3e41bbb5	0.18919261
161	0x3e2fafd4	0.17156917
162	0xbc313690	-0.010816231
163	0xbc6c829b	-0.014435436
164	0xbc77e483	-0.015130165
165	0xbd2279d3	-0.039666962
166	0xbdc25b50	-0.09490073
167	0xbd4145bc	-0.047185645
168	0xbe44a135	-0.1920212
169	0xbe98937f	-0.2980003
170	0xbec83b08	-0.39107537
171	0xbdd2374f	-0.102644555
172	0xbca3cfac	-0.019996487
173	0xbab23892	-0.0013597182
174	0xbda641ee	-0.08118044
175	0xbe05f70f	-0.13082527
176	0xbe48d9a6	-0.19614276
177	0x38ed08fd	0.00011302715
178	0x3c469c2b	0.012122194
179	0xbda672ba	-0.08127351
180	0x3d008184	0.031373516
181	0x3bca621e	0.0061762473
182	0xbdbfca03	-0.093647026
183	0xbd307911	-0.043084208
184	0x3a174ef5	0.00057719584
185	0xbda956e0	-0.08268523
186	0x3c8405b3	0.016115999
187	0xba8f17d4	-0.0010917136
188	0x3c2adfb2	0.01042931
189	0xbe864caf	-0.2623038
190	0xbe360fe4	-0.177795
191	0xbd7a2614	-0.06107147
192	0xbe2d75d9	-0.16939487
193	0xbdd28270	-0.10278785
194	0xbdf134bb	-0.11777636
195	0x3d478431	0.048710052
196	0xbd082273	-0.03323598
197	0xbd7d7fc8	-0.06188944
198	0xbdb6d952	-0.08928169
199	0x3e0444d8	0.12916887
200	0x3e14ed24	0.14543587
201	0xbd56f478	-0.052479237
202	0xbe1bf48b	-0.15230004
203	0xbd2513a7	-0.040301945
204	0xbddef009	-0.10885627
205	0xbe33b637	-0.17549978
206	0xbdf0d6ed	-0.11759744
207	0x396c8688	0.0002255683
208	0x3ccee1c5	0.02525414
209	0xbd842be2	-0.064536825
210	0x3d2e122e	0.042497806
211	0x3ce8b80d	0.028408075
212	0xbd132ae7	-0.035929587
213	0x3dc08196	0.093997166
214	0x3cef5cfe	0.029219147
215	0x3d68fd2b	0.056882065
216	0x3d68d5d8	0.056844562
217	0x3d7620ea	0.060089983
218	0x3dc10a94	0.09425846
219	0x3da3a3ff	0.07990264
220	0xbd3b695a	-0.045754768
221	0x3ca3ed42	0.020010594
222	0xbe670b8d	-0.22563
223	0xbe9e90f4	-0.30969965
224	0xbe716ed4	-0.23577434
225	0x3beab537	0.007162716
226	0xbe14096f	-0.14456724
227	0xbdaeda14	-0.08537689
228	0xbd6aba8f	-0.057306822
229	0xbbe2fb5f	-0.0069269384
230	0xbce76976	-0.02824853
231	0xbe76d615	-0.24105103
232	0xbeaa3f30	-0.33251333
233	0xbe7e509d	-0.24835439
234	0x3e0d8a66	0.13822326
235	0x3dd9a10b	0.1062642
236	0x3d3b4bdc	0.045726642
237	0x3e480af5	0.1953543
238	0x3de30ec1	0.110867985
239	0xbc316177	-0.01082646
240	0xbd1cf243	-0.038316976
241	0xbde59ef9	-0.11211962
242	0x3d491d7a	0.049100377
243	0x3e08dd6c	0.13365716
244	0x3e376908	0.1791116
245	0x3e148cff	0.1450691
246	0x3e10fbdb	0.14158575
247	0x3e158120	0.14600039
248	0x3df52c8d	0.11971388
249	0x3de52718	0.11189097
250	0x3e175060	0.14776754
251	0x3d9d46d2	0.076795235
252	0xbd07a03a	-0.03311179
253	0x3d53d7c9	0.05171946
254	0x3d886132	0.066591635
255	0x3d40dc85	0.047085304

conv2.bias f4 [64]
0	0x3e18097d	0.1484737
1	0x3e8ba9cb	0.2727798
2	0x3d06d094	0.03291376
3	0xbdb7482d	-0.08949313
4	0x3cb9ea09	0.022694604
5	0xbdcb6d68	-0.09932977
6	0xbbc6beb1	-0.0060652127
7	0xbe48d8bd	-0.19613929
8	0x3dc73441	0.097267635
9	0x3e65c6c5	0.22439106
10	0xbd138959	-0.036019657
11	0xbdb064bd	-0.08612964
12	0x3d9c9c8a	0.07647045
13	0xbdf21d16	-0.11821954
14	0x3ed91adf	0.42403314
15	0x3d7adaa0	0.061243653
16	0xbcf7d5aa	-0.03025325
17	0xbcc403ca	-0.023927588
18	0xbd895eab	-0.067075096
19	0x3e3d6684	0.18496138
20	0xbe78e318	-0.2430538
21	0xbd182c59	-0.03715167
22	0xbc708969	-0.014681199
23	0x3d384178	0.04498431
24	0x3d46c710	0.048529685
25	0xbe3094aa	-0.17244211
26	0x3cb49add	0.0220465
27	0xbe07d661	-0.13265373
28	0x3cb23ce9	0.02175756
29	0x3d2f4657	0.04279169
30	0xbd877c04	-0.06615451
31	0xbdf0dec5	-0.1176124
32	0xbd0c811b	-0.034302812
33	0x3dba0f8d	0.09084997
34	0x3c012f90	0.007884875
35	0x3cd3e2a4	0.025864907
36	0xbe60f020	-0.219666
37	0x3ebff74a	0.37493354
38	0xbdca323a	-0.09872861
39	0x3d9cae51	0.07650436
40	0xbd556f54	-0.052108124
41	0x3dd38f31	0.10330046
42	0x3d50c4f5	0.050969083
43	0xbe71a4d0	-0.23598027
44	0xbd5a1889	-0.053246055
45	0x3ec91e15	0.39280763
46	0xbe2889ba	-0.16458789
47	0xbcddb1e0	-0.027062356
48	0x3e3478a0	0.1762414
49	0xbd79c40c	-0.06097798
50	0xbe0bb1da	-0.13642064
51	0x3dfd0c69	0.12355883
52	0xbd158cae	-0.036511116
53	0x3e0e6f89	0.13909735
54	0xbe1c0734	-0.15237123
55	0x3da14733	0.07874908
56	0xbd1d0c42	-0.038341768
57	0x3d988f18	0.07449168
58	0xbe050eae	-0.12993881
59	0x3c50118a	0.012699494
60	0x3e247471	0.16060044
61	0xbd44bca1	-0.048031453
62	0xbe6ac7a6	-0.22927722
63	0xbc987ae5	-0.018613288

conv3.weight f4 [64, 64, 3, 3]
0	0xbe2e4b9b	-0.17021029
1	0x3cc3532d	0.023843372
2	0x3cc13c32	0.023588274
3	0xbd717a82	-0.058954723
4	0x3d83b2ff	0.06430625
5	0xbe77b6ed	-0.24190874
6	0xbe9f08ab	-0.310613
7	0xbe46b358	-0.19404352
8	0xbe9ca2ff	-0.30593106
9	0x3cec8a81	0.028874638
10	0xbc85389a	-0.016262341
11	0xbe26596c	-0.16245049
12	0xbce6334b	-0.02810063
13	0x3d891248	0.0669294
14	0xbcbcfc51	-0.023069533
15	0xbec4287b	-0.38312134
16	0xbeb16edf	-0.346549
17	0xbf0af6ad	-0.5428265
18	0x3d67aa46	0.05655887
19	0xbb5de70e	-0.0033859643
20	0x3e7668f1	0.2406347
21	0x3dfada85	0.122487105
22	0xbdbed8b8	-0.093186796
23	0x3e108d8b	0.14116494
24	0x3e86b556	0.26310223
25	0xbdd77859	-0.10521001
26	0x3e8f3418	0.27969432
27	0xbc0fe487	-0.0087825125
28	0x3d84a933	0.06477585
29	0x3d93349a	0.07187767
30	0x3ddea1c5	0.10870699
31	0x3dbfc7b6	0.09364264
32	0x3dc5f960	0.09666705
33	0x3d7b27b3	0.061317157
34	0xbd221bf4	-0.03957744
35	0xbc089aa3	-0.0083376495
36	0x3e1d0e04	0.15337378
37	0xbd3676f4	-0.044547036
38	0xbdc4e63f	-0.096142285
39	0xbdc3bd49	-0.09557588
40	0xbd23d678	-0.039999455
41	0xbde4fcd9	-0.11181039
42	0x3d7a234a	0.06106881
43	0xbdc18b5b	-0.09450408
44	0xbeaff2b4	-0.34364855
45	0xbddcbfc0	-0.10778761
46	0x3d103154	0.035203293
47	0x3c9b23a0	0.018937886
48	0xbd9e41c0	-0.077273846
49	0xbbacb47f	-0.0052705402
50	0xbe03da05	-0.12876137
51	0x3d07f21c	0.033189878
52	0xbd622f29	-0.055220757
53	0xbded17ed	-0.11576829
54	0x3d6f91b2	0.058488555
55	0xbd3be38d	-0.045871306
56	0xbdaed8dc	-0.085374564
57	0xbcb1c01e	-0.021698054
58	0x3dfbc881	0.122941025
59	0x3e0906e7	0.1338154
60	0x3e494f71	0.1965921
61	0x3e8a3805	0.26995865
62	0x3e2d5290	0.16926026
63	0xbcf70f1f	-0.030158577
64	0xbd406ff3	-0.046981763
65	0xbdafadd8	-0.0857808
66	0x3d8ea7f1	0.06965626
67	0x3d3abdef	0.04559129
68	0x3d88b1c7	0.06674533
69	0x3d9fbb69	0.077994175
70	0xbd86f0da	-0.065889075
71	0x3e4ec866	0.20193633
72	0x3dbd0011	0.09228528
73	0xbd5f1175	-0.054460008
74	0x3de265a7	0.11054545
75	0xbd89a276	-0.0672044
76	0xbdda1563	-0.106486104
77	0x3d47856c	0.048711225
78	0x3c5ee812	0.013605135
79	0xbc6096d4	-0.013707835
80	0xbec10a7f	-0.3770332
81	0x3c1080f7	0.00881981
82	0xbdad2177	-0.084536485
83	0xbd4910f1	-0.049088422
84	0x3de3e6b5	0.11127988
85	0x3d851342	0.06497814
86	0x3e34f990	0.17673326
87	0x3e8ea96f	0.27863643
88	0x3e823bb1	0.25436166
89	0x3e7ab553	0.24483232
90	0x3d5c934b	0.053851407
91	0xbda8966e	-0.08231817
92	0xbdd6b5c1	-0.104838856
93	0xbdda84bb	-0.106698476
94	0xbdbb7231	-0.0915264
95	0xbc046c6f	-0.008082493
96	0xbe345625	-0.17610987
97	0xbe853616	-0.26017827
98	0xbe9928b4	-0.29913867
99	0xbbfc2a30	-0.007695459
100	0x3cfdb4d7	0.03097002
101	0x3bcb645f	0.0062070335
102	0x3c90fac3	0.017697698
103	0x3c3a1042	0.011356415
104	0xbd6880c6	-0.056763433
105	0x3cdd8906	0.027042877
106	0x3d167f03	0.03674222
107	0x3d4f5ac3	0.050623666
108	0xbd76311f	-0.06010544
109	0x3cb2997c	0.021801703
110	0xbd9f8c93	-0.07790484
111	0x3d1a37f2	0.03765101
112	0x3dd6c74c	0.104872316
113	0x3de4acf8	0.11165804
114	0x3d1f94b7	0.038960185
115	0x3e208c44	0.15678507
116	0x3e010317	0.12598835
117	0x3dc61c15	0.09673325
118	0x3daeaa0c	0.085285276
119	0x3da7ec25	0.08199338
120	0x3d9158cd	0.070970155
121	0xbc90efc5	-0.017692456
122	0xbd110db8	-0.035413474
123	0xbcef252f	-0.029192535
124	0xb9904832	-0.0002751961
125	0x3caab539	0.020838367
126	0xbe1c06f6	-0.1523703
127	0xbe13393b	-0.143773
128	0x3d8805d4	0.066417366
129	0x3c6803e5	0.014161085
130	0x3dbf330b	0.093359075
131	0x3da22868	0.07917863
132	0xbda52749	-0.08064134
133	0x3c0361ff	0.00801897
134	0x3dd10971	0.10206879
135	0x3ce6801a	0.028137255
136	0x3dff3a4e	0.124622926
137	0x3e22971f	0.1587796
138	0x3d41b850	0.047294915
139	0x3e102611	0.14077021
140	0x3e0446f2	0.12917688
141	0x3e253dc1	0.16136838
142	0x3dbc1f06	0.09185605
143	0x3d78272f	0.060584243
144	0x3e53f8b3	0.2070034
145	0x3dd45f6b	0.10369762
146	0x3e636919	0.2220806
147	0xbcd5c718	-0.026095912
148	0x3d8e8b9d	0.06960223
149	0x3e1e5903	0.15463643
150	0x3c330ffa	0.010929102
151	0xbe087f68	-0.13329852
152	0xbd557ba9	-0.052119885
153	0x3deb686f	0.114945285
154	0xbc2bbee1	-0.010482521
155	0x3d154003	0.036438
156	0x3e26e536	0.16298375
157	0x3dd33723	0.10313251
158	0x3ca13030	0.019676298
159	0xbe1ead23	-0.15495734
160	0xbd810bf8	-0.06301111
161	0xbeaeef3f	-0.34166905
162	0x3d6c3d80	0.05767584
163	0x3c36776c	0.011136871
164	0x3bec3420	0.007208362
165	0xbbe55fe0	-0.0069999546
166	0xbbb1f428	-0.005430717
167	0x3cadfe0a	0.0212393
168	0x3cf61006	0.030036937
169	0xbcb6827e	-0.02227902
170	0x3d1d8a39	0.038461898
171	0xbe4f8831	-0.20266797
172	0xbd287eb3	-0.041136455
173	0xbe129f55	-0.14318593
174	0xbdaac636	-0.08338587
175	0xbe2d17e8	-0.16903651
176	0xbe0c6ae7	-0.13712655
177	0xbdd2b164	-0.10287741
178	0xbcef3ccd	-0.029203797
179	0xbe2fd3c7	-0.1717063
180	0xbe0378fc	-0.1283912
181	0x3c28050d	0.01025511
182	0xbd9b4635	-0.0758175
183	0x3e041ab1	0.12900807
184	0x3d181264	0.037126914
185	0xbe158d01	-0.1460457
186	0x3d36f452	0.044666596
187	0x3d3a4b20	0.0454818
188	0xbde72f8a	-0.11288364
189	0xbd3d27e5	-0.046180625
190	0x3e32b3d3	0.1745141
191	0xbdf24213	-0.11829009
192	0x3d959b23	0.073049806
193	0x3d553938	0.05205652
194	0xbdeb08e4	-0.11476305
195	0xbdf3381f	-0.118759386
196	0xbe8c839f	-0.2744417
197	0xbebc14bf	-0.36734578
198	0x3bdafbd2	0.0066828514
199	0x3e096266	0.13416442
200	0x3df233fb	0.11826321
201	0x3e014f5b	0.12627928
202	0x3e102537	0.14076696
203	0x3e74a54f	0.23891185
204	0xbd1d5eb4	-0.038420394
205	0x3b3feee0	0.0029286668
206	0x3e558750	0.20852399
207	0xbb4cdc40	-0.003125921
208	0x3e0b1eb8	0.13585937
209	0x3ce88144	0.028381951
210	0x3dd3cba3	0.10341575
211	0x3e3660a1	0.17810299
212	0x3e696013	0.22790556
213	0x3e07177a	0.1319255
214	0x3db49aa7	0.0881856
215	0x3e2f2bb1	0.1710651
216	0xbe7a30ab	-0.24432628
217	0xbe040249	-0.12891497
218	0xbddfe9d4	-0.10933271
219	0x3cc138ba	0.02358662
220	0xbe181428	-0.14851439
221	0xbdd74872	-0.10511865
222	0x3de312d4	0.110875756
223	0x3ddc8300	0.10767174
224	0x3e35d0b9	0.17755403
225	0x3b759346	0.0037471815
226	0xbddd5bf8	-0.10808557
227	0x3dca4b19	0.09877605
228	0x3c4710b8	0.012149982
229	0x3d3aef31	0.045638267
230	0xbdbb47e0	-0.091445684
231	0xbdf4e23c	-0.11957213
232	0xbe90c7ed	-0.2827753
233	0xbeddb89f	-0.43304917
234	0x3d53bbbe	0.051692717
235	0xbdcc4f8d	-0.099761106
236	0x3d96e17a	0.07367225
237	0x3e0f33cb	0.13984601
238	0x3e6565c3	0.224021
239	0x3d9a53b1	0.07535494
240	0x3e3c75a7	0.18404256
241	0x3ddeb7d7	0.108749084
242	0xbdd0b175	-0.10190097
243	0xbe00af1a	-0.12566796
244	0x3d54f485	0.051991004
245	0x3e1ec433	0.15504532
246	0xbdddb6eb	-0.108259045
247	0xbb6f1055	-0.003647824
248	0x3d365e1c	0.044523343
249	0xbec8fa66	-0.3925354
250	0xbd0a9d4c	-0.033841416
251	0xbdde7dab	-0.10863813
252	0xbdbeccbc	-0.09316394
253	0xbdeec6dc	-0.11659023
254	0xbd623e6a	-0.055235304
255	0x3e88dfc6	0.26733226

conv3.bias f4 [64]
0	0x3e361924	0.17783028
1	0x3e938bba	0.2881754
2	0x3e2f632f	0.1712768
3	0xbdfe6839	-0.12422223
4	0x3dbfeb96	0.09371106
5	0x3ca58a6c	0.020207606
6	0xbdc99613	-0.098430775
7	0x3e4544cf	0.1926453
8	0xbe6dcd89	-0.23222937
9	0xbd9fe6a0	-0.0780766
10	0xbd7bfaf1	-0.061518613
11	0x3e0b3074	0.13592702
12	0xbdeddf6d	-0.11614881
13	0xbe1c65d1	-0.15273215
14	0xbd376378	-0.044772595
15	0xbe2d26b7	-0.169093
16	0x3e80a4b4	0.2512566
17	0xbd884d50	-0.06655371
18	0xbd2d846a	-0.042362608
19	0x3e803db5	0.2504708
20	0xbdb4d216	-0.08829133
21	0x3c894abe	0.016759273
22	0x3dae3443	0.08506062
23	0x3daa8696	0.083264515
24	0xbce8d1fc	-0.02842044
25	0x3e973891	0.29535344
26	0x3da44b56	0.08022182
27	0xbd572739	-0.05252764
28	0x3e03888e	0.1284506
29	0xbc170f1c	-0.009219911
30	0x3e87f001	0.26550296
31	0xb6b9fdb0	-5.5429628e-06
32	0xbda45c7f	-0.08025455
33	0x3e33b580	0.17549706
34	0x3e074b5a	0.13212338
35	0x3c376dd0	0.011195615
36	0x3e91b32d	0.28457013
37	0xbdb66234	-0.089054495
38	0x3dd4321b	0.10361119
39	0x3d1eb9e6	0.038751505
40	0x3eb589aa	0.35456592
41	0xbe449d58	-0.19200647
42	0x3e2705cf	0.1631081
43	0xbd58783b	-0.052849036
44	0x3d8a94d7	0.0676667
45	0x3db92b52	0.09041466
46	0xbd3479f2	-0.04406161
47	0x3e988f61	0.2979689
48	0xbd4b6401	-0.049655918
49	0xbd64b0fa	-0.05583284
50	0x3de4ef5d	0.111784674
51	0x3b6359bc	0.0034690937
52	0x3e384444	0.17994791
53	0xbcbd3d32	-0.02310047
54	0xbd6a0699	-0.0571352
55	0xbb4d5799	-0.003133273
56	0x3e2f5678	0.17122829
57	0x3dabd16b	0.08389553
58	0xbde75976	-0.1129636
59	0x3ed016d0	0.40642405
60	0xbacd93d2	-0.0015684313
61	0xbc2b3b96	-0.010451218
62	0xbd913bda	-0.07091494
63	0x3e603a57	0.21897255

fc1.weight f4 [64, 1024]
0	0x3d504353	0.050845455
1	0x3db259c8	0.08708531
2	0x3df284f5	0.11841766
3	0x3d3e90e8	0.046524912
4	0x3e04be55	0.12963231
5	0x3d75b9fd	0.059991825
6	0x3bdf22ed	0.0068095834
7	0x3c0c701d	0.008571652
8	0x3cc09c55	0.023512045
9	0xbd87c4d5	-0.066293396
10	0xbd31e8da	-0.043434955
11	0xbde4ed39	-0.11178059
12	0xbe1fa5d1	-0.15590598
13	0xbde9cc9f	-0.114159815
14	0xbd3cd92f	-0.04610556
15	0xbe4b7946	-0.19870481
16	0x3e68886c	0.22708291
17	0x3d417fc5	0.04724099
18	0xbce29460	-0.027658641
19	0xbd1d4ad2	-0.038401432
20	0x3e47d51b	0.19514887
21	0xbb7650f5	-0.0037584875
22	0x3dbafa19	0.091297336
23	0x3d6233c8	0.055225164
24	0x3da4f07d	0.08053682
25	0x3e357a4c	0.17722434
26	0x3d99d5b5	0.075114645
27	0xbd11b478	-0.0355725
28	0x3c3c6b28	0.011500157
29	0x3e4b97d0	0.1988213
30	0x3e0b4239	0.1359948
31	0x3da96e99	0.08273048
32	0x3e020851	0.12698485
33	0x3df2761e	0.11838935
34	0x3de35249	0.11099679
35	0x3da2ceea	0.07949622
36	0xbd73a8a4	-0.059487
37	0xbda876fe	-0.08225821
38	0x3ddf05d5	0.10889784
39	0x3caa66f5	0.020801047
40	0xbdf461d8	-0.11932725
41	0xbdbac689	-0.09119899
42	0x3d2156cd	0.03938942
43	0xbe29d4c0	-0.16585064
44	0xbe5f7567	-0.21822129
45	0xbe2660d7	-0.16247879
46	0xbda9c9d0	-0.08290446
47	0x3c926092	0.017868314
48	0x3ddb27e0	0.10700965
49	0x3caf2ad1	0.021382721
50	0x3dd55e64	0.10418394
51	0xbd76a1a5	-0.06021275
52	0xbdcf0115	-0.10107628
53	0xbe80504a	-0.25061256
54	0xbe8443a4	-0.25832856
55	0xbe79f41d	-0.24409528
56	0x3b02ea19	0.001997596
57	0xbe8dc2ab	-0.27687582
58	0xbe10b233	-0.14130478
59	0xbe31cbf4	-0.17362958
60	0xbdec49d9	-0.11537523
61	0xbe68e0c5	-0.22741993
62	0xbd8d238d	-0.068915464
63	0xbe337bd1	-0.17527701
64	0x3ec5c3da	0.38625985
65	0x3ed55387	0.4166529
66	0x3eaae1d0	0.33375406
67	0x3ed7576f	0.42058894
68	0x3d689938	0.056786746
69	0x3da92d39	0.08260579
70	0x3be72d8e	0.007054991
71	0x3d9fc930	0.07802045
72	0xbdb0f257	-0.08639973
73	0x3ba3a5da	0.0049941363
74	0x3d93254c	0.07184848
75	0x3d559c33	0.052150916
76	0xbe0cfcb6	-0.13768277
77	0xbe29a43f	-0.16566561
78	0xbda0490c	-0.078264326
79	0x3ca624df	0.020281253
80	0x3d2605af	0.040532764
81	0xbe24fe07	-0.16112529
82	0x3d97965f	0.07401728
83	0xbc201ec5	-0.009772961
84	0x3e0e6976	0.13907418
85	0xbe026ef1	-0.12737633
86	0xbd91f135	-0.07126085
87	0xbe0048d8	-0.12527788
88	0x3cd28e01	0.025702478
89	0xbe0123e0	-0.12611341
90	0xbdfac45e	-0.12244485
91	0x3c35387d	0.011060831
92	0x3e3b7c19	0.18309058
93	0x3dc55553	0.09635415
94	0x3e226072	0.15857103
95	0x3d9510ea	0.07278617
96	0x3e1488c2	0.14505294
97	0x3de28c6b	0.11061939
98	0xbd91b036	-0.07113688
99	0xbd17d510	-0.037068427
100	0xbd06fe69	-0.03295747
101	0x3d137c1e	0.03600704
102	0xbc196b8d	-0.009364021
103	0x3d4a3cdb	0.049374443
104	0x3cefa816	0.029254954
105	0x3b312ffe	0.0027036662
106	0x3e265dff	0.16246794
107	0x3e377e2f	0.17919229
108	0x3dfacfa3	0.12246635
109	0x3d731b79	0.05935237
110	0x3d868de5	0.06570033
111	0x3dac2a96	0.0840656
112	0x3e155113	0.14581709
113	0x3d99246e	0.074776515
114	0xbc984d74	-0.01859162
115	0x3cc559f0	0.024090737
116	0x3e4820a5	0.19543703
117	0x3d0edb57	0.034877148
118	0xbcde8a3c	-0.027165525
119	0x3c40dbeb	0.0117711825
120	0xbcff21dc	-0.031144075
121	0x3dda1c6b	0.106499515
122	0x3dc150b5	0.09439222
123	0x3c59d617	0.013295672
124	0xbde69764	-0.11259344
125	0x3ccacdd9	0.024756359
126	0x3d83bd3a	0.064325765
127	0xbdf638df	-0.12022566
128	0x3d6da617	0.058019724
129	0x3dd20f0f	0.102567784
130	0xbdde32ef	-0.108495586
131	0xbd5b71cf	-0.053575333
132	0x3d9c52f0	0.076330066
133	0xbd02ea08	-0.03196147
134	0xbd0527ad	-0.03250854
135	0xbe1332d7	-0.14374863
136	0xbc99f719	-0.018794583
137	0xbe15dbf8	-0.14634693
138	0xbe1bc11c	-0.15210384
139	0xbd803d79	-0.06261725
140	0x3d03c462	0.032169707
141	0x3e080b49	0.13285555
142	0x3d942d62	0.072352186
143	0xbdcd91bd	-0.10037563
144	0xbd9385a8	-0.07203227
145	0xbda11b4f	-0.07866537
146	0xbe4b0bd7	-0.19828735
147	0xbe243fb6	-0.16039929
148	0xbd85a2dd	-0.06525204
149	0x3c3b1538	0.011418633
150	0xbe01b689	-0.12667288
151	0xbd8e913e	-0.069612965
152	0x3e348257	0.17627846
153	0x3e8328f7	0.2561719
154	0x3e1d8c28	0.15385497
155	0x3daa85b5	0.08326284
156	0xbe4b313e	-0.19843003
157	0xbe64264e	-0.22280237
158	0xbd197f7b	-0.03747509
159	0x3d89e8f8	0.067338884
160	0x3d1e2857	0.03861269
161	0xbc1d1395	-0.009587188
162	0x3ce984bf	0.028505681
163	0x3c552523	0.013009342
164	0x3d305a42	0.043054827
165	0x3c4f02cc	0.012634944
166	0x3b5c547f	0.00336197
167	0x3d003520	0.031300664
168	0x3bafc9d5	0.0053646364
169	0x3cc9d740	0.024638772
170	0x3d0d3b37	0.0344803
171	0x3bd05278	0.0063574873
172	0x3b2ba66f	0.0026191731
173	0x3c9b3b44	0.018949158
174	0x3c997217	0.01873116
175	0x3d0d73b6	0.03453418
176	0x3d248ad4	0.04017146
177	0xbe84f2be	-0.25966448
178	0xbe23388f	-0.15939544
179	0xbe8b2f5b	-0.27184567
180	0xbe476d57	-0.19475304
181	0x3cc4cb4a	0.024022717
182	0xbdf3866b	-0.118908726
183	0xbd75a4a5	-0.05997147
184	0x3dab75b0	0.083720565
185	0xbcbfb08b	-0.023399612
186	0x3ce1b57f	0.027552364
187	0x3a861007	0.0010228165
188	0xbe616ecf	-0.22014926
189	0x3d003604	0.031301513
190	0x3bec2dd0	0.0072076097
191	0x3d555d7b	0.052091103
192	0x3dbb80a6	0.09155397
193	0x3e08539c	0.13313144
194	0x3e1c80d4	0.15283519
195	0x3e4d863f	0.20070742
196	0xbc6b4f24	-0.01436213
197	0x3dc15c88	0.09441477
198	0x3df1e8c4	0.11811975
199	0x3dfbbb9e	0.122916445
200	0xbc72c088	-0.014816411
201	0xbdcf1c06	-0.10112767
202	0x3e2a20eb	0.1661412
203	0x3e47d693	0.19515447
204	0xbe1ecf65	-0.15508802
205	0xbe14b161	-0.1452079
206	0x3de857d6	0.113448784
207	0xbe20b689	-0.15694632
208	0xbd8b6c65	-0.06807784
209	0x3d4e7352	0.050402947
210	0xbe193f08	-0.14965451
211	0xbb7f4a7c	-0.0038954308
212	0x3d9010bd	0.070344426
213	0x3cba4dff	0.02274227
214	0x3e10cbb1	0.14140202
215	0x3e162f5f	0.14666508
216	0x3e7ca2dc	0.24671501
217	0x3d5ef64b	0.054434102
218	0x3e7db77a	0.24777022
219	0x3e98d7b0	0.29852057
220	0x3d70fc9d	0.05883466
221	0xbd2478a1	-0.040154103
222	0x3d8efbe8	0.06981641
223	0x3dbdda90	0.09270203
224	0xbe274620	-0.16335344
225	0xbe49522e	-0.19660255
226	0xbe81baea	-0.25337917
227	0xbe2e562f	-0.17025064
228	0x3d1b78cb	0.037956994
229	0x3d0463ac	0.032321617
230	0x3d7189df	0.058969375
231	0x3d3e9d2e	0.046536617
232	0x3de87f03	0.113523506
233	0x3de4734a	0.11154802
234	0x3d869d44	0.06572965
235	0x3df011cf	0.11722147
236	0x3d4978e5	0.04918756
237	0xbbf1d3cb	-0.007379984
238	0xbd39a215	-0.04532059
239	0x3c254481	0.010087133
240	0x3e2f92f8	0.17145908
241	0x3db80469	0.08985216
242	0x3d953108	0.072847426
243	0xbe09268e	-0.13393614
244	0xbe2b72c1	-0.16742994
245	0xbd81b2d1	-0.06332935
246	0xbdcbdb0c	-0.09953889
247	0x3d5c603a	0.053802706
248	0xbd96427e	-0.07336901
249	0xbc0c1bc4	-0.008551542
250	0x3d4bb906	0.049737
251	0x3ddaf234	0.10690728
252	0xbd537459	-0.05162463
253	0x3dcf5dc0	0.10125303
254	0x3db742ce	0.08948289
255	0x3bc27766	0.0059346436

fc1.bias f4 [64]
0	0x3e8fbd9e	0.28074354
1	0xbd5c7507	-0.053822543
2	0x3db3adcc	0.087733835
3	0xbd738ec7	-0.059462335
4	0xbbd9b3cc	-0.006643748
5	0xbd8a9fc6	-0.067687556
6	0x3de48fa0	0.11160207
7	0xbd21b054	-0.0394748
8	0x3e5bd142	0.21466544
9	0x3c844dc3	0.01615036
10	0xbd4069b0	-0.04697579
11	0xbbd86954	-0.006604353
12	0xbce436d2	-0.027858172
13	0xbbdae841	-0.006680519
14	0xbb29d35e	-0.0025913338
15	0x3e0624b4	0.13099939
16	0xbce814fe	-0.028330322
17	0x3e9663b1	0.29372934
18	0x3c0d97ca	0.008642146
19	0xbca92d8a	-0.020651598
20	0xbbeafb05	-0.007171037
21	0x3d8a38d1	0.06749118
22	0x3e08db43	0.13364892
23	0x3e7167f5	0.23574813
24	0xbcdcbe77	-0.02694629
25	0xbd1a24c9	-0.037632737
26	0xbd2f7daa	-0.042844452
27	0xbd1220cd	-0.035675813
28	0xbd9b4f55	-0.07583491
29	0xbcf79b5d	-0.03022545
30	0xbcd9c3e2	-0.026582662
31	0xbd0f40f7	-0.034974065
32	0xbd38416f	-0.044984277
33	0xbdbb97e9	-0.09159834
34	0xbd9b1c56	-0.07573764
35	0x3e3ad603	0.18245701
36	0xbd81161c	-0.06303045
37	0x3d8641c1	0.0655551
38	0xbd6154e9	-0.055012617
39	0xbd31e717	-0.043433275
40	0xbbd3cdd5	-0.006463746
41	0x3db57a7a	0.08861251
42	0x3cc46908	0.023975864
43	0xbda4540c	-0.08023843
44	0xbc2230b9	-0.009899312
45	0x3c003b16	0.007826587
46	0x3e757816	0.2397159
47	0x3db770d5	0.08957068
48	0xbdd0cbd0	-0.10195124
49	0xbda1931e	-0.078893885
50	0x3e115a14	0.14194518
51	0x3de0fcae	0.10985695
52	0xbbb2e207	-0.0054590735
53	0x3c4dd07a	0.012561912
54	0x3d3e53d3	0.04646666
55	0xbd3034ad	-0.043018986
56	0x3e628516	0.22121081
57	0xbc855ac7	-0.016278638
58	0x3e4259b7	0.18979536
59	0xbe428e5b	-0.18999617
60	0xbd31956d	-0.043355394
61	0xbd679c5d	-0.056545604
62	0xbd370037	-0.04467794
63	0xbc84bf4f	-0.016204504

fc2.weight f4 [10, 64]
0	0x3ddf41bf	0.10901212
1	0xbe883d09	-0.26609066
2	0x3dfd987a	0.12382598
3	0xbdc0975d	-0.0940387
4	0x3db955ee	0.09049593
5	0xbd7378cf	-0.059441384
6	0xbd373c50	-0.044735253
7	0x3db33d77	0.08751958
8	0x3d4e35d6	0.05034431
9	0xbdaa20f3	-0.08307066
10	0x3ddc9924	0.10771397
11	0x3bdd9b67	0.00676291
12	0xbc189e2a	-0.009315053
13	0x3ced9986	0.02900387
14	0xbca9bbfe	-0.020719524
15	0xbe0f3488	-0.13984883
16	0x3c93e49c	0.018053345
17	0xbe27cd2a	-0.16386858
18	0xbdbc2d16	-0.09188287
19	0xbde41787	-0.111373
20	0xbd93abd6	-0.072105095
21	0xbdc6d915	-0.09709374
22	0xbe005434	-0.12532121
23	0x3d81e676	0.06342785
24	0x3dc7b0fe	0.097505555
25	0xbd9de2f9	-0.07709307
26	0x3ce2b2e1	0.027673187
27	0x3df199ec	0.117969364
28	0xbc535ea7	-0.012900985
29	0xbd2ad46d	-0.04170649
30	0xbc9fb40b	-0.01949503
31	0xbdcca16c	-0.09991726
32	0xbdf7f07f	-0.12106418
33	0xbe2057c1	-0.15658475
34	0xbddc29c8	-0.10750157
35	0xbe6c35a7	-0.23067342
36	0x3da10ad0	0.078633904
37	0x3db9dd12	0.09075369
38	0x3c6a6915	0.01430728
39	0x3d9bf808	0.076156676
40	0xbd96fc80	-0.07372379
41	0x3d9b7a72	0.07591714
42	0x3e4e10e3	0.2012363
43	0x3b7d1854	0.0038619237
44	0x3e1ae550	0.15126538
45	0x3cfc7a5e	0.030820068
46	0xbe94a772	-0.29034
47	0x3ce7ce57	0.028296633
48	0x3e237166	0.15961227
49	0xbe440b9c	-0.19145054
50	0xbe82d95b	-0.25556454
51	0xbde91121	-0.1138022
52	0x3da6b1c9	0.081393786
53	0x3dac15bd	0.08402584
54	0x3e1bdf3d	0.15221877
55	0xbdc62b62	-0.09676243
56	0x3e5258e1	0.20541717
57	0xbdedede1	-0.116176374
58	0xbde3c8d1	-0.11122287
59	0xbe04bcd9	-0.12962665
60	0xbd4de813	-0.05027015
61	0x3c2d2887	0.0105687445
62	0xbc643471	-0.013928519
63	0x3d5c2c40	0.053753138
64	0xbd6aa5e2	-0.057287104
65	0x3e1ca116	0.15295824
66	0x3d1e506f	0.038650926
67	0xbdb94fc7	-0.090484194
68	0xbdb099c0	-0.086230755
69	0xbdb83178	-0.089938104
70	0xbdf869cc	-0.12129554
71	0x3d7f52a1	0.06233466
72	0xbd1998c1	-0.037499193
73	0x3c5fff11	0.013671652
74	0xbcb5b862	-0.022182647
75	0x3d0879a9	0.03331915
76	0xbd9204ce	-0.07129823
77	0x3d34a9c3	0.04410721
78	0xbc7d89d5	-0.015474756
79	0xbd35756b	-0.04430143
80	0x3cab7198	0.02092819
81	0xbe84c611	-0.25932363
82	0xbd877826	-0.06614713
83	0xbe05b35a	-0.13056698
84	0xbc10a551	-0.008828477
85	0x3e433458	0.19062936
86	0xbdb22b7f	-0.086997025
87	0xbe466a50	-0.19376493
88	0x3d20f5d3	0.039296936
89	0xbd9e7396	-0.0773689
90	0x3d25342b	0.040332954
91	0xbd6ed503	-0.058308613
92	0xbdc598df	-0.096482985
93	0x3cf8318f	0.030297069
94	0xbe03e645	-0.1288081
95	0xbdb56d2b	-0.08858713
96	0xbd800c0f	-0.062523
97	0x3e57bd60	0.21068335
98	0xbd9509b2	-0.0727724
99	0xbccafd1c	-0.024778895
100	0xbc269851	-0.010168151
101	0xbc6778cd	-0.014127922
102	0x3d8edffd	0.06976316
103	0x3dfea864	0.12434462
104	0xbdbd8f8d	-0.09255896
105	0x3e789694	0.24276191
106	0xbe21aa69	-0.15787663
107	0xbd1299b7	-0.035791125
108	0xbe48af65	-0.19598158
109	0xbdea1842	-0.11430408
110	0xbea9a6d7	-0.331351
111	0xbe52aada	-0.20572987
112	0x3e1c65e7	0.15273248
113	0x3e43a40f	0.19105552
114	0x3d11c999	0.03559265
115	0xbe125c13	-0.14292936
116	0x3dcaad91	0.098963864
117	0xbd743079	-0.05961654
118	0x3d4fe72d	0.050757576
119	0xbdc91afa	-0.098195985
120	0xbe0a03ee	-0.13478062
121	0x3c88c413	0.016695058
122	0xbe66ae72	-0.22527483
123	0x3ea9bff9	0.33154276
124	0xbd95743b	-0.0729756
125	0x3d7a4ffb	0.06111143
126	0xbd24bb3b	-0.04021762
127	0xbdc4d8d5	-0.0961167
128	0xbe34a2a8	-0.17640173
129	0xbdfc7f82	-0.12329008
130	0xbe3ac9a9	-0.1824099
131	0xbdbd4984	-0.092425376
132	0xbdb44b9d	-0.088034846
133	0x3d2d4df8	0.042310685
134	0x3dfebedc	0.12438747
135	0x3dc1495f	0.094378226
136	0x3e466f93	0.193785
137	0x3bf3b757	0.0074376273
138	0xbabdc3bb	-0.0014477888
139	0x3d56d66e	0.05245059
140	0xbb19114e	-0.0023356262
141	0x3d1f369a	0.03887043
142	0x3c61007e	0.0137330275
143	0xbe4c07ef	-0.19924901
144	0xbd8bfff4	-0.068359286
145	0xbe2bd070	-0.16778731
146	0xbce9a7d2	-0.028522406
147	0xbd6f2a6f	-0.058390077
148	0xbdafc952	-0.08583321
149	0xbe0cd1aa	-0.13751855
150	0x3e247888	0.16061604
151	0xbdb37113	-0.087618016
152	0x3be7bbee	0.0070719635
153	0xbdb36583	-0.08759596
154	0xbda6317a	-0.08114906
155	0xbdb46e74	-0.0881013
156	0x3db72dcf	0.08944284
157	0x3d64b4c4	0.055836454
158	0x3bce6f82	0.006299914
159	0xbcdfe536	-0.027330976
160	0xbca5e3ec	-0.020250283
161	0xbd7b1184	-0.061296
162	0xbd5f6929	-0.054543648
163	0x3e156401	0.1458893
164	0x3d54453f	0.05182385
165	0x3ef200e4	0.47266304
166	0xbe044a90	-0.12919068
167	0xbd72fef3	-0.05932517
168	0xbe0bfa6f	-0.13669752
169	0xbe32e88d	-0.17471524
170	0x3e28bc9d	0.164782
171	0x3d2035bb	0.03911374
172	0x3d741e69	0.059599314
173	0xbd5bab01	-0.05362988
174	0xbcc80872	-0.02441809
175	0xbd858bfd	-0.06520841
176	0xbdb1ab5d	-0.08675263
177	0x3e626054	0.22107059
178	0x3e3ec235	0.18628772
179	0x3d703695	0.058645803
180	0xbc85efb0	-0.016349643
181	0x3defda96	0.11711614
182	0xbe85538c	-0.26040304
183	0xbd897155	-0.067110695
184	0x3e180c01	0.14848329
185	0x3dbff93e	0.09373711
186	0xbda603c7	-0.08106189
187	0x3ddc2bbc	0.10750529
188	0x3dd4de7a	0.103939965
189	0xbd9d0928	-0.07667762
190	0xbd376587	-0.04477456
191	0x3db45ef1	0.08807171
192	0x3e5059d4	0.20346767
193	0x3d41db99	0.047328565
194	0xbe5442f3	-0.20728664
195	0xbd741909	-0.059594188
196	0xbdd93dc5	-0.10607485
197	0xbda26573	-0.07929506
198	0xbd7352a6	-0.05940499
199	0x3d823fb0	0.06359804
200	0x3e1a712b	0.15082233
201	0x3cb4a48b	0.022051116
202	0xbdf947da	-0.12171908
203	0x3d61bb34	0.05511017
204	0x3ce8e818	0.028430983
205	0x3dd76dc0	0.1051898
206	0x3cc27d12	0.023741279
207	0xbe4034c6	-0.18770131
208	0xbd7ce67c	-0.061743245
209	0x3da812a0	0.082066774
210	0xbc0e9189	-0.0087016905
211	0x3ceba792	0.028766427
212	0xbd00a51d	-0.031407464
213	0xbe197ba7	-0.14988576
214	0x3db530d5	0.088472046
215	0xbd7f9768	-0.06240025
216	0x3c03b87c	0.00803959
217	0x3d68c2cd	0.0568264
218	0xbcbb74a9	-0.022882776
219	0xbdd74394	-0.105109364
220	0xbd941524	-0.07230595
221	0x3d936633	0.07197227
222	0xbd9e4403	-0.07727816
223	0x3d121a97	0.03566989
224	0x3d130acd	0.035898972
225	0xbdbdffcc	-0.09277305
226	0x3c029393	0.007969755
227	0xbe6cd326	-0.23127422
228	0xbdab04f2	-0.083505526
229	0xbe65340a	-0.22383133
230	0x3d93d7ac	0.072188705
231	0x3df9df41	0.122007854
232	0xbd80c929	-0.06288368
233	0xbe02c289	-0.12769522
234	0x3da18c6e	0.07888113
235	0xbcb1c5e6	-0.02170081
236	0xbd457f16	-0.0482169
237	0x3dbf6595	0.09345547
238	0x3c8f072c	0.017459475
239	0xbe510369	-0.20411457
240	0xbe2e1b72	-0.17002657
241	0xbd929ecc	-0.07159194
242	0x3e24a1a8	0.16077292
243	0x3dcda89d	0.10041926
244	0x3ddb6679	0.107129045
245	0x3d786694	0.0606447
246	0xbdbb51e4	-0.09146479
247	0x3d85223c	0.0650067
248	0xbc7abb4e	-0.015303446
249	0xbd7b7dbf	-0.061399218
250	0x3e121153	0.14264421
251	0xbb46b366	-0.0030319332
252	0xbd0966a7	-0.033545163
253	0xbbc0d765	-0.005885052
254	0x3d6d8335	0.057986457
255	0x3a985ab1	0.0011623708

fc2.bias f4 [10]
0	0xbd137f07	-0.036009815
1	0xbec3c463	-0.3823577
2	0xbdf7eb72	-0.121054545
3	0x3d8f15cd	0.0698658
4	0x3e5eefd1	0.2177117
5	0x3d2affc1	0.041747812
6	0x3da57b09	0.08080108
7	0xbd9d39cb	-0.07677039
8	0x3d3cfdf8	0.04614064
9	0xbc77196d	-0.015081746
